data/img_ad_vae_weights.ckpt (torch, 569127 bytes, 105 tensors)

exp_avg f4 [2, 14]
0	0x3aba251e	0.0014201736
1	0xba2a2c38	-0.00064915745
2	0xbb2dd230	-0.0026522987
3	0xba12a5a4	-0.00055941404
4	0xbabe19e4	-0.0014503566
5	0xba0cb953	-0.00053681916
6	0x3a3a4ecb	0.0007107078
7	0xb9a576d0	-0.00031559775
8	0x39bd1de0	0.00036071148
9	0x3a00fed2	0.00049207837
10	0x3a19aedf	0.00058625446
11	0xbae14bf9	-0.0017188779
12	0xba0ef457	-0.00054532796
13	0x3a95462b	0.001138871
14	0xb9621ceb	-0.00021563812
15	0xb99cc402	-0.00029900676
16	0xb84ef012	-4.933781e-05
17	0x395799a8	0.00020561239
18	0xb89669a2	-7.172233e-05
19	0x3a26520a	0.0006344622
20	0x3a0d2041	0.00053835294
21	0xb8a1db7c	-7.7179604e-05
22	0xb967e404	-0.00022114819
23	0xb9b3dfa4	-0.00034308166
24	0xb9f4575d	-0.00046604397
25	0xba1b7450	-0.00059301127
26	0xb9cdedc0	-0.00039277785
27	0x39d8a389	0.00041320574

exp_avg_sq f4 [2, 14]
0	0x39aa80f4	0.00032521004
1	0x389a3bb2	7.354411e-05
2	0x38a14b46	7.691099e-05
3	0x38a02e98	7.638073e-05
4	0x389c5c69	7.4558724e-05
5	0x38618021	5.376351e-05
6	0x39dfa58b	0.00042657214
7	0x3817deae	3.6208592e-05
8	0x38a345e7	7.785466e-05
9	0x38326dbc	4.2540705e-05
10	0x39a704e1	0.00031856357
11	0x3a13e562	0.00056417857
12	0x3879c5be	5.9550388e-05
13	0x39cd8d96	0.00039206137
14	0x37b9e2d6	2.2159347e-05
15	0x378a7da8	1.6509395e-05
16	0x36cd00b3	6.1095575e-06
17	0x3718f10f	9.116032e-06
18	0x37ca99ad	2.4151837e-05
19	0x379daa58	1.8795181e-05
20	0x3866c467	5.5019187e-05
21	0x366006fb	3.3382664e-06
22	0x370df0bb	8.460304e-06
23	0x368a3a79	4.1195276e-06
24	0x37c02b20	2.2908265e-05
25	0x388fc607	6.855657e-05
26	0x3740534f	1.1463489e-05
27	0x3910d27f	0.00013811326

exp_avg f4 [64, 27]
0	0xb92be94e	-0.00016394744
1	0x382166df	3.8481197e-05
2	0xb783637c	-1.5662743e-05
3	0xb810ee4e	-3.4554214e-05
4	0x38831f9e	6.252456e-05
5	0xb855f238	-5.100874e-05
6	0xb95ff5c9	-0.000213585
7	0x35a079da	1.1956392e-06
8	0x37f08be7	2.8675377e-05
9	0x36cae607	6.046848e-06
10	0xb9237b1a	-0.0001559075
11	0x39ae287a	0.00033218024
12	0x3896d4ec	7.192217e-05
13	0xb96da23f	-0.00022662523
14	0x3a3e2e8e	0.0007254862
15	0x3a6210ee	0.00086237385
16	0x39f4517e	0.00046600023
17	0x3a190854	0.0005837728
18	0x3a6efe82	0.0009116904
19	0x3a64f6d4	0.000873429
20	0x3a5e410b	0.000847832
21	0x39859245	0.00025476716
22	0xb8239279	-3.899864e-05
23	0x3a75a763	0.0009370951
24	0xb93c9feb	-0.00017988651
25	0x39cd6ff7	0.00039184067
26	0x3a90cd8c	0.0011047586
27	0xb7525e36	-1.2538911e-05
28	0x364896b2	2.9890039e-06
29	0xb58e1168	-1.058489e-06
30	0xb63b095b	-2.7870617e-06
31	0x36a29ba0	4.8460934e-06
32	0xb683c269	-3.9267366e-06
33	0xb78b86da	-1.6632886e-05
34	0x342bade7	1.5988881e-07
35	0x361306f1	2.1908747e-06
36	0x34ffee10	4.7670665e-07
37	0xb74c3932	-1.2172664e-05
38	0x37d8c547	2.5841071e-05
39	0x36c2d104	5.805983e-06
40	0xb793d857	-1.7624507e-05
41	0x38319d23	4.2346433e-05
42	0x38b79309	8.7535074e-05
43	0x388468d6	6.313778e-05
44	0x38aeb5ae	8.330807e-05
45	0x386e9f2c	5.6891862e-05
46	0xb763c730	-1.3576631e-05
47	0x38b9ce56	8.8599205e-05
48	0x38159e4e	3.56718e-05
49	0xb81d6926	-3.7529644e-05
50	0x37e478fd	2.7236058e-05
51	0xb8b826fa	-8.781064e-05
52	0x382e7095	4.1589683e-05
53	0x38bce795	9.007674e-05
54	0x3897b6ea	7.2343115e-05
55	0xb7872351	-1.61097e-05
56	0x36da7882	6.5109352e-06
57	0x37784ba4	1.4799563e-05
58	0xb7e2324a	-2.6964717e-05
59	0x37b81536	2.1944386e-05
60	0x38c637dc	9.45178e-05
61	0xb4c02632	-3.5790578e-07
62	0xb752a0ce	-1.2554416e-05
63	0xb61dc36a	-2.350857e-06
64	0x3892e892	7.005142e-05
65	0xb91aa7cd	-0.00014749095
66	0xb8091b95	-3.2689033e-05
67	0x38d2859d	0.00010038468
68	0xba7414d0	-0.00093109626
69	0xba4d1433	-0.00078231393
70	0x3b4ab595	0.0030930985
71	0xbada2735	-0.0016643765
72	0x3950ae78	0.0001990142
73	0x3b4f8b1e	0.0031668614
74	0xbb1746a4	-0.0023082877
75	0x3a9ec071	0.0012111795
76	0x3b917ab4	0.004439676
77	0xbad394f2	-0.0016142412
78	0x3af811f9	0.0018926255
79	0x3a06dd54	0.0005144675
80	0xba390064	-0.0007057248
81	0xb8072f96	-3.2230826e-05
82	0x36f84252	7.3986967e-06
83	0xb6392f16	-2.7594556e-06
84	0xb6e729e1	-6.889212e-06
85	0x374cb83a	1.2202241e-05
86	0xb7287dba	-1.0042853e-05
87	0xb8325c24	-4.252432e-05
88	0x34634e9e	2.1169623e-07
89	0x36c02d48	5.7273173e-06
90	0x35971834	1.1257421e-06
91	0xb802b60c	-3.116396e-05
92	0x388af104	6.6252454e-05
93	0x3776bb2c	1.4706322e-05
94	0xb83e2048	-4.5329594e-05
95	0xb9cee5ac	-0.000394625
96	0x39b96eca	0.00035368494
97	0x3aa29926	0.0012405261
98	0xb9bd8e5b	-0.00036154952
99	0xb9fde956	-0.0004842977
100	0x3abb97de	0.0014312228
101	0xb6846d80	-3.946654e-06
102	0xb97b0889	-0.00023940405
103	0x3945249c	0.00018801022
104	0x3a690f88	0.0008890559
105	0x3ab0f013	0.0013499282
106	0xb762ec1e	-1.3525625e-05
107	0x38f7be9f	0.00011813384
108	0x387f71e5	6.090281e-05
109	0xb76b3cac	-1.4021218e-05
110	0x369b7f39	4.6341706e-06
111	0x3750da6e	1.2448623e-05
112	0xb7c0e9de	-2.2997086e-05
113	0x37a15a1c	1.9234656e-05
114	0x38a8ab4a	8.042769e-05
115	0xb5660e07	-8.570209e-07
116	0xb72a547c	-1.015246e-05
117	0xb628df54	-2.5163945e-06
118	0x38747f83	5.8292888e-05
119	0xb904bc93	-0.0001265875
120	0xb7d5c69a	-2.548406e-05
121	0x38b6d56f	8.7181914e-05
122	0xb9d60f6d	-0.00040828754
123	0x3aaf4010	0.0013370533
124	0xba0c726d	-0.0005357627
125	0xbac9ed0c	-0.0015405728
126	0x3ab761d3	0.0013990946
127	0x3b2621ac	0.002534966
128	0xba10ec33	-0.00055283605
129	0xbaa2ea1f	-0.0012429393
130	0x3ad85c13	0.0016506932
131	0x39bfa80b	0.0003655556
132	0x39f8e5a2	0.00047473336
133	0xba7b4c54	-0.0009586264
134	0xb9491040	-0.00019174907
135	0x395b584f	0.00020918365
136	0xb84bfa71	-4.8632213e-05
137	0x379b49fc	1.8511892e-05
138	0x38337884	4.2789165e-05
139	0xb8a5b8a9	-7.902209e-05
140	0x388820d6	6.4911015e-05
141	0x398d9eac	0.00027011835
142	0xb5ec4a36	-1.7604968e-06
143	0xb8188bc4	-3.636979e-05
144	0xb6eea4ac	-7.112123e-06
145	0x394e8817	0.00019696388
146	0xb9dca4e5	-0.00042084526
147	0xb8bc1014	-8.967533e-05
148	0x39969d67	0.00028727503
149	0xb85d8950	-5.281839e-05
150	0xba95451e	-0.0011388396
151	0xbb319e8e	-0.0027102563
152	0x398aacae	0.00026450068
153	0xba06776b	-0.0005129489
154	0xbb689e90	-0.0035494901
155	0xb9c9a05f	-0.00038457193
156	0xb9007f7a	-0.0001225452
157	0xba753cb0	-0.00093550514
158	0xbb0d7a51	-0.00215878
159	0xbacd8592	-0.0015680066
160	0x399163a8	0.00027730805
161	0xbabceedb	-0.0014414446
162	0x378afe6f	1.6569362e-05
163	0xb67f7b54	-3.8069747e-06
164	0x35c7b1cd	1.4878402e-06
165	0x36718b96	3.5993048e-06
166	0xb6d051df	-6.208414e-06
167	0x36aff9d2	5.2444893e-06
168	0x37b9ca9f	2.2148071e-05
169	0xb41d7b52	-1.4666628e-07
170	0xb63856c0	-2.7468632e-06
171	0xb544cd17	-7.3314135e-07
172	0x3783fb60	1.5733473e-05
173	0xb80f9cfe	-3.4240067e-05
174	0xb6f39740	-7.259572e-06
175	0x37c4d83d	2.3465715e-05
176	0xb9a7c8cc	-0.00032002327
177	0x3a0d77c2	0.00053965684
178	0xb8ba10b0	-8.8722794e-05
179	0xb91594a6	-0.00014265123
180	0xb9f384d0	-0.00046447525
181	0x39afb9ee	0.0003351713
182	0x394f3966	0.00019762441
183	0xba13603d	-0.00056219456
184	0xba20ba2d	-0.0006131258
185	0x39dbcaf8	0.0004192216
186	0x3a6a1229	0.00089290977
187	0xb98155f6	-0.00024668843
188	0xb92880ec	-0.00016069756
189	0x3817fdfc	3.6237747e-05
190	0xb71109a9	-8.644923e-06
191	0x362b8220	2.5556728e-06
192	0x36f7bb9a	7.3830133e-06
193	0xb76bc394	-1.4052628e-05
194	0x373b7c4e	1.11750105e-05
195	0x38444618	4.679532e-05
196	0xb54347b6	-7.2747514e-07
197	0xb6e04c4d	-6.684603e-06
198	0xb5241700	-6.112823e-07
199	0x380e03c8	3.385896e-05
200	0xb89ad003	-7.3820374e-05
201	0xb77b90ba	-1.4994463e-05
202	0x3854f2c9	5.077085e-05
203	0xb959d790	-0.00020775036
204	0x3a65bc1e	0.00087636884
205	0xba3de318	-0.00072436174
206	0xb991526c	-0.00027717964
207	0x3a2d92f5	0.00066213246
208	0xb7b89020	-2.2001623e-05
209	0xb9eb3103	-0.0004485921
210	0xb925823a	-0.0001578414
211	0xb8823e1c	-6.210452e-05
212	0xba62aed8	-0.00086472696
213	0x3a91fe42	0.0011138397
214	0xb9123ad6	-0.00013945563
215	0xb9aed9f4	-0.00033350254
216	0x391e8d00	0.00015120581
217	0xb8109448	-3.4470373e-05
218	0x37763f00	1.4677411e-05
219	0x37f7090e	2.9448911e-05
220	0xb86bf746	-5.6258657e-05
221	0x3843cd78	4.668298e-05
222	0x394945ba	0.00019194829
223	0xb4ed0283	-4.4146518e-07
224	0xb7d861dc	-2.5794776e-05
225	0xb6ab99a7	-5.1140846e-06
226	0x39124e9b	0.00013952928
227	0xb99cd088	-0.00029910007
228	0xb8818a04	-6.176907e-05
229	0x395602c0	0.00020409655
230	0xb9ea0caa	-0.00044641393
231	0xba0a252f	-0.0005269823
232	0xb98326d0	-0.00025015185
233	0xba3c47de	-0.000718234
234	0xba0a7af1	-0.0005282602
235	0xb995ea69	-0.00028594144
236	0xba0b2c16	-0.00053089985
237	0xba95862f	-0.0011407788
238	0xba87a3cf	-0.0010348501
239	0x39369066	0.00017410665
240	0xba3736e8	-0.00069890777
241	0xbac506bb	-0.0015031913
242	0xba233c82	-0.0006226973
243	0x376614e6	1.3713934e-05
244	0xb663b8ec	-3.3933275e-06
245	0xb3a28400	-7.5677235e-08
246	0x36353500	2.7001952e-06
247	0xb6b78d14	-5.4702487e-06
248	0x368da7ce	4.2216625e-06
249	0x379586ca	1.782495e-05
250	0xb525872e	-6.1664e-07
251	0xb60e6abe	-2.122178e-06
252	0xb4817dec	-2.4119743e-07
253	0x3759de6c	1.29859945e-05
254	0xb7ecc0e0	-2.8223207e-05
255	0xb6c96306	-6.0017946e-06

exp_avg_sq f4 [64, 27]
0	0x351b10a9	5.7766243e-07
1	0x3495d3dc	2.790756e-07
2	0x3233bf82	1.0462715e-08
3	0x338e7244	6.633175e-08
4	0x34c170b6	3.603106e-07
5	0x3488c59a	2.5475748e-07
6	0x3601b7ca	1.9329477e-06
7	0x3231f69a	1.0358827e-08
8	0x3322163d	3.773879e-08
9	0x333998cf	4.3212648e-08
10	0x350ec80d	5.3190234e-07
11	0x366d2de3	3.5342462e-06
12	0x348ffb80	2.6818816e-07
13	0x363ab6ca	2.7822557e-06
14	0x3655e0a7	3.1870238e-06
15	0x37a9d472	2.0245297e-05
16	0x3707b8c0	8.0896425e-06
17	0x36c475ed	5.8549836e-06
18	0x370e33f0	8.475952e-06
19	0x36e3bb4c	6.7869314e-06
20	0x3706e597	8.040478e-06
21	0x36f96c45	7.4333825e-06
22	0x3725109b	9.838633e-06
23	0x3700b5b9	7.671705e-06
24	0x376c3718	1.4079524e-05
25	0x3763b42f	1.3572207e-05
26	0x372f8523	1.0461811e-05
27	0x329df5c4	1.8388967e-08
28	0x321bca08	9.068124e-09
29	0x2fb04946	3.2066277e-10
30	0x310ef925	2.0805342e-09
31	0x3235244e	1.0543841e-08
32	0x320bb739	8.132525e-09
33	0x337cf4b6	5.8895886e-08
34	0x300e2e3b	5.1724997e-10
35	0x307fdc47	9.308149e-10
36	0x30fb88e6	1.8301562e-09
37	0x3294a75f	1.730558e-08
38	0x33e92165	1.08559824e-07
39	0x321af57d	9.019797e-09
40	0x33b2af5c	8.3206686e-08
41	0x34bbaefa	3.4958776e-07
42	0x359f547d	1.1871012e-06
43	0x35e1fc39	1.6837213e-06
44	0x350d78f7	5.270262e-07
45	0x3452e2ed	1.9640329e-07
46	0x355996a6	8.105802e-07
47	0x3522dd39	6.0671624e-07
48	0x3494c313	2.7709083e-07
49	0x35482ccc	7.4570994e-07
50	0x353ade90	6.961427e-07
51	0x34bd1c92	3.522478e-07
52	0x34e77be3	4.3117242e-07
53	0x34d88939	4.0332978e-07
54	0x352f1c49	6.523374e-07
55	0x344c3413	1.9017925e-07
56	0x326c69e6	1.37610865e-08
57	0x335e8c47	5.1815984e-08
58	0x349e907b	2.9534917e-07
59	0x344ba3d5	1.896545e-07
60	0x3606047e	1.997017e-06
61	0x31962073	4.3692636e-09
62	0x32fc3143	2.9359063e-08
63	0x32a1f32f	1.8853454e-08
64	0x352bf9eb	6.406614e-07
65	0x3686f613	4.022158e-06
66	0x345f0c13	2.0772886e-07
67	0x363cfe59	2.8162233e-06
68	0x383a5277	4.4422657e-05
69	0x385cf0d9	5.2676394e-05
70	0x391f5589	0.00015195286
71	0x383de7d8	4.5277033e-05
72	0x382226fa	3.866011e-05
73	0x392703d0	0.00015927781
74	0x3855409b	5.0843326e-05
75	0x381708a6	3.600926e-05
76	0x3917ba44	0.00014469872
77	0x389a8114	7.367335e-05
78	0x38fbba26	0.000120032855
79	0x3799eb6b	1.8348646e-05
80	0x37ae3de8	2.0771244e-05
81	0x34375fc6	1.7078045e-07
82	0x33155044	3.4764767e-08
83	0x31935414	4.2878217e-09
84	0x3251ad89	1.22048585e-08
85	0x3376a076	5.7422277e-08
86	0x33217f5c	3.7601566e-08
87	0x34f42a53	4.5479337e-07
88	0x308d7a6b	1.0293894e-09
89	0x31c668cb	5.774472e-09
90	0x31970256	4.394944e-09
91	0x34358c22	1.6907919e-07
92	0x3581d08b	9.671943e-07
93	0x334a86fa	4.715455e-08
94	0x35219a2c	6.0201523e-07
95	0x3781ee03	1.5488831e-05
96	0x37995211	1.8277236e-05
97	0x3879e58a	5.958e-05
98	0x37a817b3	2.0038196e-05
99	0x367a90d5	3.7337206e-06
100	0x38962ab8	7.160514e-05
101	0x37bd7941	2.2587019e-05
102	0x37037f38	7.837829e-06
103	0x388c66a4	6.6948385e-05
104	0x3800aa83	3.067638e-05
105	0x380b8960	3.3268123e-05
106	0x3719e04b	9.171733e-06
107	0x36ef8268	7.1379363e-06
108	0x358397dd	9.804459e-07
109	0x3479a36e	2.3249387e-07
110	0x32ca0631	2.351871e-08
111	0x339e1374	7.360987e-08
112	0x34c16098	3.6019333e-07
113	0x3480ba44	2.3977384e-07
114	0x3633c70b	2.6788937e-06
115	0x31ee3fcd	6.933965e-09
116	0x3320bfc5	3.7427316e-08
117	0x32ffe677	2.979071e-08
118	0x3580af48	9.587757e-07
119	0x36b90694	5.5141954e-06
120	0x349be361	2.903644e-07
121	0x36720638	3.606443e-06
122	0x37c263ca	2.317307e-05
123	0x382021f7	3.8178605e-05
124	0x37f24df5	2.888495e-05
125	0x379b84c0	1.8539256e-05
126	0x37f3f2f0	2.9080984e-05
127	0x37363c8e	1.0862144e-05
128	0x378e368a	1.6953116e-05
129	0x380c3f5e	3.3437616e-05
130	0x378bb875	1.6655986e-05
131	0x379d613d	1.8761139e-05
132	0x3874c304	5.8355756e-05
133	0x381d8dd2	3.7563797e-05
134	0x37c0dfb6	2.2992357e-05
135	0x35077aee	5.0470305e-07
136	0x33f63714	1.1465286e-07
137	0x324e189e	1.19963754e-08
138	0x3323b25d	3.8113615e-08
139	0x343dbf3b	1.7671566e-07
140	0x34003e8b	1.1943682e-07
141	0x35b2df95	1.3327104e-06
142	0x318e8d80	4.1488306e-09
143	0x329d1c20	1.8289995e-08
144	0x328e6122	1.6575147e-08
145	0x35047d8a	4.9356515e-07
146	0x363ae943	2.7851936e-06
147	0x342075cb	1.4944014e-07
148	0x35ec7d82	1.7619898e-06
149	0x36ccae9b	6.1000005e-06
150	0x386b29cb	5.606729e-05
151	0x389538e1	7.115468e-05
152	0x37153608	8.893672e-06
153	0x3815c15b	3.5704445e-05
154	0x38eff166	0.00011441372
155	0x3786a2d6	1.6049871e-05
156	0x381eeb24	3.7889127e-05
157	0x38c2e163	9.2926224e-05
158	0x379fbcbf	1.9042169e-05
159	0x389f18e0	7.586344e-05
160	0x381e2ba1	3.7710768e-05
161	0x3745642d	1.1765439e-05
162	0x343ba416	1.7475426e-07
163	0x3322252f	3.7752383e-08
164	0x319aa5e8	4.5008512e-09
165	0x325d1a61	1.2869891e-08
166	0x33823c98	6.064619e-08
167	0x332d019e	4.0281172e-08
168	0x34fae0e5	4.672976e-07
169	0x30a08a42	1.1680827e-09
170	0x31d1871f	6.098062e-09
171	0x31a9bd4f	4.9400692e-09
172	0x34388c63	1.7187408e-07
173	0x3583c954	9.818855e-07
174	0x3356c654	5.0006136e-08
175	0x352695eb	6.205798e-07
176	0x378bcfcc	1.6666854e-05
177	0x378a9b16	1.65231e-05
178	0x386c7b5b	5.638167e-05
179	0x37a67e80	1.9847648e-05
180	0x36b8e8c7	5.510726e-06
181	0x3890dc52	6.907493e-05
182	0x37b8c4fd	2.202624e-05
183	0x3708bfd7	8.150898e-06
184	0x386c1dd4	5.6294564e-05
185	0x381dd349	3.762849e-05
186	0x37f8056d	2.956643e-05
187	0x3734634a	1.0751954e-05
188	0x370e5ff9	8.486205e-06
189	0x35105fdc	5.3783674e-07
190	0x34a7d0cb	3.125809e-07
191	0x3204d856	7.7326e-09
192	0x33a2df7c	7.5843644e-08
193	0x34bd8535	3.5300914e-07
194	0x349536b9	2.779323e-07
195	0x35ea88df	1.7474193e-06
196	0x329cfcb9	1.8275715e-08
197	0x330b6a2f	3.2460033e-08
198	0x3393a877	6.8758645e-08
199	0x3500ea4f	4.802468e-07
200	0x364be3be	3.038192e-06
201	0x34a16d84	3.006827e-07
202	0x3624f90c	2.4582869e-06
203	0x380e15f7	3.3875895e-05
204	0x3859ffbf	5.1975014e-05
205	0x38d64d22	0.00010218682
206	0x3815f51f	3.5752655e-05
207	0x3801032b	3.0758947e-05
208	0x3904dfaf	0.0001267183
209	0x381f88a1	3.80358e-05
210	0x3817230c	3.6033845e-05
211	0x38efb20c	0.00011429572
212	0x389181e0	6.93833e-05
213	0x387f3628	6.0847175e-05
214	0x3821069f	3.8391558e-05
215	0x3757c739	1.2861384e-05
216	0x34c9c0e0	3.7579503e-07
217	0x331ba2d3	3.6236838e-08
218	0x324003db	1.11767475e-08
219	0x32c927a9	2.3417515e-08
220	0x33a5c7ba	7.719741e-08
221	0x335df7e0	5.1681013e-08
222	0x3555ceba	7.964951e-07
223	0x30a841c1	1.2242297e-09
224	0x322add8b	9.945675e-09
225	0x31a892a6	4.9061155e-09
226	0x34c82e71	3.7286694e-07
227	0x35f22bdd	1.8043171e-06
228	0x33b72bad	8.529546e-08
229	0x357dd374	9.455755e-07
230	0x373af87f	1.1144321e-05
231	0x36b1f28a	5.3032463e-06
232	0x36c07270	5.735368e-06
233	0x370cc642	8.390811e-06
234	0x3735450d	1.0804518e-05
235	0x372820e4	1.0021238e-05
236	0x36d7d7d4	6.432625e-06
237	0x37539779	1.26118475e-05
238	0x37168faa	8.974146e-06
239	0x370a547a	8.24511e-06
240	0x372d4f3c	1.0330052e-05
241	0x3744a8a2	1.1721773e-05
242	0x37393eb4	1.10414585e-05
243	0x333c284e	4.3808818e-08
244	0x3281ce46	1.5111379e-08
245	0x30866785	9.779205e-10
246	0x318f0990	4.162935e-09
247	0x32a4cc68	1.9185066e-08
248	0x3277d353	1.4425342e-08
249	0x3404403c	1.2316826e-07
250	0x30736635	8.854813e-10
251	0x30ecf386	1.7240473e-09
252	0x31538e81	3.0785545e-09
253	0x33349433	4.2044302e-08
254	0x34828380	2.4310066e-07
255	0x32936b66	1.7161891e-08

exp_avg f4 [64]
0	0xae846d92	-6.0221286e-11
1	0x2b1c5a8c	5.554799e-13
2	0xadb829f0	-2.0937002e-11
3	0x2d949d70	1.6895568e-11
4	0x2d64e6fc	1.3011588e-11
5	0xae1e8e92	-3.605167e-11
6	0xae4fea17	-4.7274264e-11
7	0xae1e8eff	-3.6052047e-11
8	0xaed7e1b8	-9.817164e-11
9	0xae877aee	-6.160926e-11
10	0xaf0c5bf0	-1.2765589e-10
11	0x2de4a44f	2.5993567e-11
12	0x2e2a8f0e	3.8780583e-11
13	0xad350497	-1.0289678e-11
14	0x2e6cee00	5.3871574e-11
15	0xac8f7cbf	-4.078154e-12
16	0xad89fb84	-1.5686792e-11
17	0xae1dc214	-3.5870043e-11
18	0xac0b1d3a	-1.9769312e-12
19	0x2ed9ad64	9.898818e-11
20	0xaeab7c8d	-7.7983044e-11
21	0x2d3f9e4a	1.089224e-11
22	0x2e2bf262	3.9096178e-11
23	0x2ebe6236	8.6576454e-11
24	0x2e14f69d	3.387034e-11
25	0xadc9247a	-2.2867253e-11
26	0xac9323d0	-4.1819673e-12
27	0xae1462e3	-3.3739133e-11
28	0xac936f48	-4.190346e-12
29	0xab16aa60	-5.352715e-13
30	0x2eb3b6a1	8.172419e-11
31	0x2a324df2	1.5836619e-13
32	0xaf93341e	-2.6776176e-10
33	0xada03448	-1.8213112e-11
34	0xad4a6c93	-1.1506479e-11
35	0xae86b109	-6.125062e-11
36	0xae2ea1f2	-3.9706856e-11
37	0x2ba019c0	1.1375831e-12
38	0xaa9df946	-2.806177e-13
39	0x2e64c013	5.2011794e-11
40	0x2d18effe	8.693489e-12
41	0xac863b48	-3.8150906e-12
42	0xaea70e1e	-7.5967885e-11
43	0x2c28b91f	2.3976999e-12
44	0x2d13d3c7	8.403007e-12
45	0xae2f5f3e	-3.9874985e-11
46	0x2b75fe1c	8.7394133e-13
47	0x2c62001e	3.2116597e-12
48	0x2f2a0748	1.5463997e-10
49	0xaf6c4e07	-2.1491796e-10
50	0xadad8b64	-1.9729725e-11
51	0xabe1e77a	-1.6051459e-12
52	0xac289f4c	-2.3962663e-12
53	0x2e794782	5.6679557e-11
54	0x2c057014	1.8962653e-12
55	0xaa1ea780	-1.4091332e-13
56	0xadda62db	-2.4827631e-11
57	0xad5ca78a	-1.2542753e-11
58	0x2e6938c8	5.3028498e-11
59	0xac4da7f4	-2.9225485e-12
60	0xabe9c4b8	-1.6610246e-12
61	0xaecdae95	-9.353333e-11
62	0xadd85a52	-2.4596467e-11
63	0x2e75dc1b	5.5902043e-11

exp_avg_sq f4 [64]
0	0x1f6227f3	4.7890407e-20
1	0x1f29f7a4	3.5991986e-20
2	0x20df3216	3.7810814e-19
3	0x1ff0c2ba	1.019661e-19
4	0x2013c2ec	1.2515879e-19
5	0x210be790	4.74015e-19
6	0x1ff1d16e	1.0241394e-19
7	0x20a567a9	2.8020684e-19
8	0x1f3e4d94	4.0298236e-20
9	0x1fb452d9	7.6370025e-20
10	0x20824894	2.2070885e-19
11	0x204a27cb	1.7123232e-19
12	0x20969a8d	2.5513262e-19
13	0x1e9eeba5	1.6826361e-20
14	0x207d5a11	2.1459734e-19
15	0x1f0114b5	2.733394e-20
16	0x1f8ea8dd	6.04187e-20
17	0x1f96f59a	6.3933785e-20
18	0x1e27ee5d	8.890199e-21
19	0x1fd92b9a	9.197521e-20
20	0x1fb18dd1	7.519703e-20
21	0x1e7df93c	1.3445249e-20
22	0x204d141a	1.7370826e-19
23	0x20c18021	3.278026e-19
24	0x1fbe8a36	8.069678e-20
25	0x1f7e591f	5.386031e-20
26	0x2091d7de	2.4706804e-19
27	0x2000abaf	1.0898827e-19
28	0x1f72ffa5	5.1456958e-20
29	0x1f99201d	6.485115e-20
30	0x2041cd80	1.641573e-19
31	0x1d8ceccb	3.730253e-21
32	0x21498322	6.8275e-19
33	0x20b44dc2	3.0544642e-19
34	0x2083eea5	2.2350185e-19
35	0x202b7ea0	1.452616e-19
36	0x1e9db59e	1.6698137e-20
37	0x1f5c68ec	4.66736e-20
38	0x2053b5b8	1.7932521e-19
39	0x1f5b6233	4.6456282e-20
40	0x1fbcfcba	8.00392e-20
41	0x1fdb99df	9.3004666e-20
42	0x2070365f	2.034678e-19
43	0x1f89f69d	5.8429744e-20
44	0x1f92f035	6.2230794e-20
45	0x1f43c8b2	4.1458867e-20
46	0x1ffbfa57	1.0671679e-19
47	0x1f8e4f0f	6.027013e-20
48	0x210209e8	4.4058824e-19
49	0x20de95e3	3.770745e-19
50	0x1f97c5d3	6.427826e-20
51	0x1e10e2d0	7.6702e-21
52	0x1f002ee8	2.7143854e-20
53	0x201d7ee7	1.3340406e-19
54	0x206843d9	1.9673613e-19
55	0x1fb81dbc	7.797622e-20
56	0x1ef1adf4	2.5588813e-20
57	0x1fd9e4fc	9.22819e-20
58	0x20a1ff97	2.7443596e-19
59	0x1dded966	5.8987695e-21
60	0x1f8cf970	5.9704966e-20
61	0x20963e32	2.5452146e-19
62	0x1f6e5bab	5.0474286e-20
63	0x20446807	1.6636266e-19

exp_avg f4 [64]
0	0x39636bfc	0.00021688634
1	0x37d4e426	2.537861e-05
2	0x39c4afe6	0.00037515088
3	0xba867fe6	-0.0010261505
4	0xba26ed1e	-0.00063677307
5	0x3ace3730	0.0015733
6	0xb9678f3e	-0.00022083239
7	0x398c91dc	0.00026811555
8	0xb9a68b04	-0.00031765562
9	0xb63a4c00	-2.7760398e-06
10	0x3a9af5f6	0.001182257
11	0x39dcce4a	0.00042115367
12	0x39ce1c61	0.00039312526
13	0x38b2ba58	8.522411e-05
14	0xba47fdad	-0.0007629048
15	0x38dde7a7	0.0001058125
16	0xb740b7d0	-1.1486889e-05
17	0xb9ae4ab7	-0.00033243533
18	0x38d20bcc	0.00010015778
19	0xba617558	-0.00086005544
20	0x3a4c0500	0.00077827275
21	0x391f7784	0.00015207945
22	0xba47ebdb	-0.0007626393
23	0xb984e892	-0.0002535028
24	0xb821ad8e	-3.8547027e-05
25	0xb8045e29	-3.1558946e-05
26	0x3a5d5718	0.0008443459
27	0xba2ad220	-0.00065162964
28	0x3834831c	4.303745e-05
29	0x391cba76	0.00014946781
30	0xb9d1df6b	-0.00040030046
31	0x379d2cce	1.8736722e-05
32	0xba239960	-0.0006240811
33	0xb84dad37	-4.9037128e-05
34	0x3a01f80e	0.00049579225
35	0xb913e8a4	-0.00014105678
36	0x3942a9c5	0.00018564526
37	0x383bcd3e	4.477542e-05
38	0xb9308482	-0.00016834031
39	0x399d727a	0.00030030665
40	0x3886777c	6.4118736e-05
41	0x3a295125	0.000645893
42	0x39cf71a4	0.00039566786
43	0x3901f030	0.00012391875
44	0x384472f4	4.68371e-05
45	0x38c071fc	9.176505e-05
46	0x37ff4841	3.0432015e-05
47	0x379657e6	1.7922324e-05
48	0xbab5caf9	-0.0013869695
49	0xba0ecbf5	-0.0005447262
50	0x3a0c84ae	0.0005360347
51	0x38801b3d	6.108589e-05
52	0x38f40682	0.00011636039
53	0xb9a37810	-0.00031179236
54	0x38b01e69	8.397998e-05
55	0xba25fd5e	-0.0006332005
56	0xb98abdd0	-0.00026462832
57	0xb9ad503a	-0.00033056905
58	0x38b8dfe8	8.8155095e-05
59	0x36f5e1df	7.327864e-06
60	0x370fc9da	8.570461e-06
61	0xb8e09a7a	-0.00010709926
62	0xba0b6005	-0.0005316737
63	0x39303345	0.00016803767

exp_avg_sq f4 [64]
0	0x3702f20e	7.804962e-06
1	0x357d8b81	9.445285e-07
2	0x3792bb56	1.7491791e-05
3	0x376f6da6	1.427104e-05
4	0x375977b4	1.29620785e-05
5	0x37d1444e	2.4946548e-05
6	0x373ae601	1.1140016e-05
7	0x37104e35	8.601278e-06
8	0x36adedf1	5.183502e-06
9	0x364ee8cd	3.08319e-06
10	0x376d8ec7	1.4159544e-05
11	0x371a57a8	9.199524e-06
12	0x3757c3e6	1.286061e-05
13	0x353bebbf	7.0005984e-07
14	0x370d2fa4	8.415347e-06
15	0x35b8bef7	1.3764646e-06
16	0x36a001fc	4.7686026e-06
17	0x3684fb08	3.9631304e-06
18	0x3502208a	4.8476124e-07
19	0x36df6c32	6.6585135e-06
20	0x3780e1ea	1.5363988e-05
21	0x36147209	2.2120096e-06
22	0x373418cb	1.0734609e-05
23	0x387f4c0c	6.0867562e-05
24	0x368c6f25	4.185264e-06
25	0x3657254c	3.2059206e-06
26	0x37a1c8bf	1.9286175e-05
27	0x36a949e7	5.045196e-06
28	0x357a8111	9.3320074e-07
29	0x3541a48f	7.2137567e-07
30	0x37583446	1.2886774e-05
31	0x34af78d1	3.2684196e-07
32	0x37b2c40c	2.1310545e-05
33	0x359a082a	1.147627e-06
34	0x371885c4	9.091051e-06
35	0x36631393	3.383703e-06
36	0x364aa11c	3.0194124e-06
37	0x35431276	7.2670025e-07
38	0x3714647e	8.844885e-06
39	0x365cf50b	3.2925188e-06
40	0x35666df2	8.584167e-07
41	0x37aa4e84	2.0302141e-05
42	0x3702777d	7.776424e-06
43	0x370e52e4	8.483159e-06
44	0x352948d7	6.30634e-07
45	0x369d54b9	4.6888276e-06
46	0x351b9fe4	5.797467e-07
47	0x35566c70	7.987901e-07
48	0x3807bfc1	3.2365093e-05
49	0x37b81282	2.1943128e-05
50	0x377bb744	1.5003436e-05
51	0x34cc478f	3.8050027e-07
52	0x35a35453	1.2168988e-06
53	0x37563d5a	1.27696785e-05
54	0x3532a9ae	6.6557084e-07
55	0x3732049e	1.0610702e-05
56	0x362f4846	2.61191e-06
57	0x360037b3	1.9105908e-06
58	0x37a4fe96	1.9668874e-05
59	0x34cc2808	3.8027088e-07
60	0x356d3c69	8.837729e-07
61	0x377b8c27	1.4993398e-05
62	0x36e5bc12	6.846626e-06
63	0x36cf3083	6.1747282e-06

exp_avg f4 [64]
0	0x3a33cc30	0.00068587344
1	0xb812f733	-3.5039335e-05
2	0xb8bab983	-8.9037254e-05
3	0xb9b3915c	-0.00034249842
4	0xba3056f6	-0.00067268254
5	0xb8c1b49c	-9.236598e-05
6	0xb9553783	-0.00020333943
7	0x387c50d8	6.0156774e-05
8	0xb9a10290	-0.00030710222
9	0xb90a66b2	-0.00013198963
10	0x3a0920d7	0.0005231029
11	0x39ad1516	0.00033012842
12	0xb997e9ab	-0.0002897506
13	0x388fab31	6.850658e-05
14	0x3a6cdc93	0.00090355537
15	0x38796482	5.945983e-05
16	0xb98e7d97	-0.00027177922
17	0xb98b5e80	-0.00026582554
18	0x38caf55f	9.6778145e-05
19	0xb99b697c	-0.00029642496
20	0xb98ee075	-0.00027251584
21	0x390e964c	0.00013598165
22	0xb8c40211	-9.346393e-05
23	0x390837ea	0.000129908
24	0xb61432b0	-2.2083223e-06
25	0x38a7a622	7.994125e-05
26	0x3607bfa0	2.0228108e-06
27	0xb989f025	-0.00026309598
28	0x385007cf	4.9598337e-05
29	0x38a2182e	7.729266e-05
30	0xb99c4ccb	-0.00029811854
31	0x37d15206	2.4952937e-05
32	0x3951859b	0.00019981565
33	0xb8d7c734	-0.000102891034
34	0x38553777	5.0834813e-05
35	0x3825cc90	3.952958e-05
36	0x396c5987	0.00022540065
37	0xb8652917	-5.4636123e-05
38	0x38238bdf	3.8992494e-05
39	0x37cd57bd	2.447876e-05
40	0x37ba5945	2.2214497e-05
41	0x3a11d6a6	0.0005563296
42	0xb8155b3a	-3.560933e-05
43	0x3a64c19d	0.00087263604
44	0x3851307c	4.9874638e-05
45	0x3987d2cc	0.00025906262
46	0x38741a67	5.8198722e-05
47	0x378f9f3c	1.7121078e-05
48	0xba1c0592	-0.0005951758
49	0x3905c3ec	0.00012756855
50	0x3a45b3b9	0.00075417344
51	0x382151e7	3.846167e-05
52	0x38b31a56	8.5402906e-05
53	0xb9f7714d	-0.00047195927
54	0x36f952c0	7.4304116e-06
55	0xb854a728	-5.0700415e-05
56	0xb91f1cf0	-0.00015174202
57	0xb5e5a400	-1.710956e-06
58	0x389b2098	7.397047e-05
59	0x36bfafd9	5.712715e-06
60	0xb81d6c30	-3.7532474e-05
61	0xb9823565	-0.00024835314
62	0xba1814ea	-0.0005801456
63	0x37f6b264	2.9408555e-05

exp_avg_sq f4 [64]
0	0x36b983ee	5.5287883e-06
1	0x35888716	1.0172105e-06
2	0x36023414	1.9401823e-06
3	0x35f8251f	1.8488244e-06
4	0x36fb6f15	7.4933146e-06
5	0x367f7ee6	3.8071826e-06
6	0x362d4392	2.581834e-06
7	0x35a72cab	1.245547e-06
8	0x363215db	2.6536788e-06
9	0x358a467b	1.0302314e-06
10	0x3676109b	3.6666522e-06
11	0x35e8dc1a	1.7349405e-06
12	0x37676d3c	1.3794106e-05
13	0x34c7423b	3.7114827e-07
14	0x36dcb8d4	6.5780278e-06
15	0x355e01d4	8.2704105e-07
16	0x35b3e7de	1.3404022e-06
17	0x369161fb	4.332743e-06
18	0x34761e4a	2.2921554e-07
19	0x360ec2e9	2.1273102e-06
20	0x376c8981	1.4098711e-05
21	0x35f34715	1.8125598e-06
22	0x35f297d8	1.8074597e-06
23	0x374a3cae	1.2054266e-05
24	0x352b4523	6.380307e-07
25	0x357a4c07	9.324289e-07
26	0x369a2aba	4.5945317e-06
27	0x361612e0	2.2362728e-06
28	0x35e40838	1.6989716e-06
29	0x351d67b2	5.8637954e-07
30	0x35bc8991	1.4047129e-06
31	0x34242fd1	1.5291086e-07
32	0x3615ffe1	2.2351671e-06
33	0x35ab994e	1.278511e-06
34	0x35b855f2	1.3734082e-06
35	0x368efc47	4.2612987e-06
36	0x3651e708	3.1277905e-06
37	0x356199a6	8.404262e-07
38	0x365717b9	3.2051305e-06
39	0x3584f07f	9.90476e-07
40	0x35178d79	5.6457753e-07
41	0x370eda3a	8.514669e-06
42	0x35bf8968	1.4270599e-06
43	0x37129e90	8.739196e-06
44	0x35176e3e	5.6412307e-07
45	0x3683fc48	3.9334736e-06
46	0x351a2f8f	5.743868e-07
47	0x3524546f	6.121763e-07
48	0x37331ecd	1.0676403e-05
49	0x3753f875	1.26344285e-05
50	0x3654b0ce	3.1693376e-06
51	0x345ab955	2.0370256e-07
52	0x366059c5	3.3430854e-06
53	0x35d0b97e	1.5551193e-06
54	0x35ae389b	1.2980485e-06
55	0x35a84fe2	1.2540224e-06
56	0x35db7132	1.6349716e-06
57	0x370eb326	8.505571e-06
58	0x372b23ff	1.0200775e-05
59	0x349837da	2.8352844e-07
60	0x35ae15b4	1.2970327e-06
61	0x35ec4017	1.7602023e-06
62	0x36e2b40a	6.756284e-06
63	0x35a3613a	1.2172743e-06

exp_avg f4 [128, 64]
0	0x38a54ce6	7.8821366e-05
1	0xb8352051	-4.318386e-05
2	0xb97a9e30	-0.00023900787
3	0x397babf4	0.00024001283
4	0x38a73b73	7.974254e-05
5	0xb962eba6	-0.00021640825
6	0x394d296a	0.00019565751
7	0xb87c6202	-6.017276e-05
8	0x39357a92	0.00017307166
9	0x390b05d6	0.00013258247
10	0x392ebf46	0.00016665188
11	0x38967f85	7.17631e-05
12	0xb94b1470	-0.00019367202
13	0x358988fa	1.0247161e-06
14	0x3972c8a7	0.00023153667
15	0xb6476940	-2.9714574e-06
16	0xb7850270	-1.585597e-05
17	0x37cdb71c	2.4523171e-05
18	0xb7188047	-9.089773e-06
19	0x3912d986	0.00014004679
20	0xb5558e00	-7.955532e-07
21	0xb88e9eca	-6.8006644e-05
22	0x38d21ba8	0.00010018732
23	0x390de81e	0.00013533278
24	0x38e52d7a	0.000109280416
25	0x38dfe4f9	0.00010676118
26	0xb8deec17	-0.0001062976
27	0x3987edd8	0.00025926414
28	0xb79766fe	-1.8048562e-05
29	0xb7f38e6b	-2.9034176e-05
30	0x39668edd	0.0002198773
31	0xb754b9d3	-1.267945e-05
32	0x395502e7	0.00020314344
33	0xb871889b	-5.75861e-05
34	0x392878a0	0.00016066665
35	0xb84f5575	-4.9432234e-05
36	0x391f053c	0.00015165372
37	0xb7750d37	-1.4606215e-05
38	0xb97f6e4b	-0.00024359782
39	0x38d55510	0.000101724756
40	0xb80fbfe0	-3.4272554e-05
41	0xb9a37d3b	-0.00031183087
42	0xb969092e	-0.00022224031
43	0x3833b12b	4.2841926e-05
44	0xb7d1d2ac	-2.5012843e-05
45	0x38919a8c	6.9429254e-05
46	0xb754202d	-1.2643676e-05
47	0xb7c7e122	-2.3827484e-05
48	0x39c2113e	0.0003701541
49	0x390ea7ac	0.00013604638
50	0xb96af7e0	-0.0002240832
51	0xb7258342	-9.865327e-06
52	0xb7946532	-1.7690098e-05
53	0x39259209	0.00015790029
54	0xb852a95a	-5.0225623e-05
55	0x37222c12	9.666213e-06
56	0xb7a69574	-1.9858337e-05
57	0xb9577ca4	-0.0002055043
58	0xb86864e6	-5.540708e-05
59	0xb78a2d78	-1.6472055e-05
60	0xb8421cf6	-4.6280176e-05
61	0x387924c7	5.9400478e-05
62	0x38620b23	5.389297e-05
63	0x39b40116	0.00034333084
64	0xb6feecd5	-7.5973608e-06
65	0x362eb8c4	2.6035568e-06
66	0xb7ff077c	-3.0401854e-05
67	0xb7f27d14	-2.8906892e-05
68	0xb7a9cf65	-2.0242946e-05
69	0x375c4ae7	1.3130461e-05
70	0xb7531f2d	-1.2583839e-05
71	0x376cbd69	1.4110797e-05
72	0xb79c84af	-1.8658435e-05
73	0xb6e3ebd2	-6.7925803e-06
74	0xb8006ac0	-3.0616997e-05
75	0xb4f8bd80	-4.633148e-07
76	0x3776e8c2	1.4716936e-05
77	0x34398208	1.7276773e-07
78	0xb62c5ab8	-2.5682803e-06
79	0xb520e80c	-5.994232e-07
80	0xb75bd786	-1.3103598e-05
81	0xb6f0befb	-7.1747904e-06
82	0x355f6eef	8.3235403e-07
83	0xb7948868	-1.7706494e-05
84	0x3798333e	1.8143674e-05
85	0x368848e6	4.0616023e-06
86	0x360aa575	2.065991e-06
87	0x385fc5c8	5.335154e-05
88	0xb7f436fc	-2.911267e-05
89	0xb78b89eb	-1.6634314e-05
90	0xb844d9f0	-4.693301e-05
91	0xb8193591	-3.652793e-05
92	0xb60e63d9	-2.1217768e-06
93	0x34910308	2.701056e-07
94	0x37255af2	9.855941e-06
95	0x361d3b54	2.3429357e-06
96	0x37d7fa72	2.574662e-05
97	0x3675c3ed	3.6621889e-06
98	0xb7940a7a	-1.7647853e-05
99	0x358136a0	9.627147e-07
100	0xb5f091ca	-1.7923824e-06
101	0x36326ff3	2.658923e-06
102	0xb79afda0	-1.8476334e-05
103	0xb700ed5e	-7.684661e-06
104	0x363d8d9e	2.8245627e-06
105	0x3802d3ee	3.119179e-05
106	0x3710ee8d	8.638611e-06
107	0xb763a0f1	-1.35677265e-05
108	0x3656e0c2	3.2019311e-06
109	0xb68681af	-4.0086084e-06
110	0xb67c2064	-3.756978e-06
111	0x35b9cc16	1.3842971e-06
112	0xb8919afd	-6.9430076e-05
113	0xb7cc5d57	-2.436216e-05
114	0x36f22457	7.2163925e-06
115	0x36171400	2.2512395e-06
116	0xb5ffeba6	-1.9067563e-06
117	0x381512ee	3.5541998e-05
118	0x37015564	7.708881e-06
119	0x350b08c0	5.179427e-07
120	0x36e5ebc6	6.8521795e-06
121	0x377c9126	1.50541655e-05
122	0xb68f0360	-4.262125e-06
123	0xb5836b3e	-9.791472e-07
124	0x36961727	4.4730436e-06
125	0xb7b2854f	-2.128133e-05
126	0xb793469c	-1.7556646e-05
127	0xb8797d06	-5.9482663e-05
128	0xb7ad78f2	-2.0679527e-05
129	0xb6f0667c	-7.164488e-06
130	0x381b1592	3.697497e-05
131	0xb899eb98	-7.339491e-05
132	0x38265a60	3.9661652e-05
133	0x38a5eddc	7.912118e-05
134	0x3780b6f8	1.534399e-05
135	0x3980b858	0.0002455141
136	0xb88ece3d	-6.8095025e-05
137	0x37693472	1.3900093e-05
138	0xb902a7dc	-0.00012460299
139	0xb7e98f3b	-2.7842461e-05
140	0x386485f0	5.4484175e-05
141	0xb65dd4a6	-3.3055344e-06
142	0xb90696fc	-0.00012835482
143	0xb720cfc6	-9.585119e-06
144	0x36a57da0	4.932008e-06
145	0x37b9d9ac	2.215508e-05
146	0xb55cee10	-8.2302813e-07
147	0x37b65628	2.173621e-05
148	0x391b57b8	0.0001481463
149	0x38373886	4.368324e-05
150	0x393ea62e	0.00018181719
151	0x39041f23	0.000126001
152	0xb811b7b2	-3.4741774e-05
153	0xb808317e	-3.247102e-05
154	0xb8f1dcd0	-0.00011532905
155	0xb824ebdb	-3.9320304e-05
156	0xb74dbb4e	-1.2262562e-05
157	0xb7478aef	-1.1893672e-05
158	0x38cb60da	9.697834e-05
159	0x36800772	3.815564e-06
160	0x36c94790	5.9985978e-06
161	0xb698806e	-4.544904e-06
162	0x37de3d90	2.649313e-05
163	0x37eeb93f	2.8458073e-05
164	0xb7df9e72	-2.6657453e-05
165	0xb6d65fb5	-6.3888388e-06
166	0x388a842c	6.604972e-05
167	0x385885ae	5.1622912e-05
168	0xb6583252	-3.2215798e-06
169	0x389e4b42	7.548045e-05
170	0x394a81cd	0.00019312576
171	0x36d24010	6.2659456e-06
172	0xb63a95bd	-2.780332e-06
173	0x3811a26b	3.4721957e-05
174	0xb742d813	-1.161361e-05
175	0xb72222a4	-9.664018e-06
176	0xb84cc0fc	-4.881712e-05
177	0xb92097a9	-0.00015315287
178	0x38929b25	6.9907204e-05
179	0x3690acc0	4.311645e-06
180	0xb7d7fc7c	-2.574757e-05
181	0x396e3bd1	0.00022719732
182	0x376db88d	1.416927e-05
183	0x38a58159	7.891906e-05
184	0x3865c45d	5.4780732e-05
185	0x38e27160	0.000107976375
186	0xb9026527	-0.00012435448
187	0xb747d859	-1.1911697e-05
188	0x35b47d65	1.344754e-06
189	0xb74dd669	-1.2268873e-05
190	0xb80592c5	-3.184636e-05
191	0xb8e0a5d3	-0.000107120395
192	0x376bbd96	1.4051233e-05
193	0x368bc258	4.1651474e-06
194	0xb6e08c5a	-6.6920593e-06
195	0xb8262d06	-3.9619415e-05
196	0x38541e59	5.0573002e-05
197	0xb838addb	-4.4030934e-05
198	0xb78053ef	-1.5297874e-05
199	0x382cd6ea	4.120815e-05
200	0xb8a2ba4a	-7.759461e-05
201	0xb7012a72	-7.698882e-06
202	0xb899ac21	-7.32767e-05
203	0xb8721d69	-5.7724686e-05
204	0x37d84cd0	2.5784975e-05
205	0x36099de3	2.0506493e-06
206	0xb8e25fe7	-0.00010794383
207	0x36833fad	3.911517e-06
208	0xb7c6a85c	-2.3681838e-05
209	0x378d9368	1.6877151e-05
210	0xb43cbfef	-1.757869e-07
211	0xb6400e00	-2.8618379e-06
212	0x3830587e	4.2044085e-05
213	0x36f9d21e	7.445239e-06
214	0x37a12f3f	1.9214696e-05
215	0x3883aaac	6.278357e-05
216	0xb762d82f	-1.3520984e-05
217	0xb7b92913	-2.2072845e-05
218	0xb8cf2306	-9.877053e-05
219	0xb7471ec0	-1.1868484e-05
220	0x36562f68	3.191608e-06
221	0x36489f58	2.9895073e-06
222	0x35c11f6d	1.4388767e-06
223	0x361335f3	2.193611e-06
224	0xb85acc04	-5.2165255e-05
225	0x36f036d2	7.1589393e-06
226	0xb79fd86c	-1.9055056e-05
227	0x37bcf45e	2.2525139e-05
228	0x378fd81a	1.7147559e-05
229	0x36c01c8c	5.725369e-06
230	0xb7bc8e72	-2.2477678e-05
231	0x36fd5dc1	7.550902e-06
232	0x36c68a1e	5.916939e-06
233	0xb65d98d4	-3.3020524e-06
234	0x381bdee5	3.7162466e-05
235	0x373506b1	1.0789999e-05
236	0x3698fd63	4.559451e-06
237	0x36b1abb7	5.2950013e-06
238	0x360511f1	1.9828988e-06
239	0x36ab78a2	5.1102406e-06
240	0xb79c8ed8	-1.8663166e-05
241	0xb877cfd0	-5.908293e-05
242	0xb80f516f	-3.4169698e-05
243	0x365142b8	3.1182262e-06
244	0xb70029c0	-7.639115e-06
245	0x384be620	4.8613292e-05
246	0x37165d04	8.962354e-06
247	0xb58839b0	-1.0149579e-06
248	0x366213e8	3.3688211e-06
249	0x373342e4	1.0684806e-05
250	0xb8897a8d	-6.555496e-05
251	0xb687e56e	-4.0500227e-06
252	0x3703b7d6	7.851011e-06
253	0xb69e3d75	-4.7159215e-06
254	0xb7923b0b	-1.743205e-05
255	0xb7c65c2b	-2.3646358e-05

exp_avg_sq f4 [128, 64]
0	0x361a941a	2.3033995e-06
1	0x35254aab	6.1575946e-07
2	0x363e089b	2.8317215e-06
3	0x361ca02a	2.333904e-06
4	0x3659dd83	3.2464457e-06
5	0x36b5f94c	5.4232423e-06
6	0x3624d5bb	2.4562312e-06
7	0x36202a33	2.386642e-06
8	0x34f8e8b9	4.6362928e-07
9	0x35e99e6c	1.740596e-06
10	0x364ead3d	3.079723e-06
11	0x365adfa9	3.2614719e-06
12	0x360fe157	2.1439826e-06
13	0x349ed8a4	2.958742e-07
14	0x359db245	1.1749295e-06
15	0x3515c2bf	5.579022e-07
16	0x35f4540a	1.8203875e-06
17	0x358b4860	1.0377371e-06
18	0x3477c905	2.3076798e-07
19	0x35f174e0	1.7989914e-06
20	0x361efc07	2.3690534e-06
21	0x3519f8ae	5.735882e-07
22	0x362460f8	2.4494348e-06
23	0x36e35d90	6.7760193e-06
24	0x3596de2a	1.1240529e-06
25	0x35a517e6	1.2300413e-06
26	0x36939ef4	4.399446e-06
27	0x361d41ef	2.3433201e-06
28	0x3532a955	6.655658e-07
29	0x34f232d7	4.5113003e-07
30	0x3626d946	2.4862397e-06
31	0x3436b81b	1.7017048e-07
32	0x368cf499	4.2008e-06
33	0x3523f4f4	6.1078686e-07
34	0x35f61d95	1.8337038e-06
35	0x35d5c220	1.5926234e-06
36	0x34fd80d8	4.7218668e-07
37	0x34edf539	4.4323113e-07
38	0x3604a6d7	1.9766646e-06
39	0x35458419	7.3580446e-07
40	0x350dfa51	5.289085e-07
41	0x36493fef	2.9988548e-06
42	0x3605ff13	1.9967017e-06
43	0x36518fea	3.1227196e-06
44	0x34d6d595	4.0016008e-07
45	0x35989216	1.1367399e-06
46	0x34c06793	3.5838147e-07
47	0x3503e1d5	4.912993e-07
48	0x36e896e8	6.9317066e-06
49	0x367f1d98	3.8015187e-06
50	0x360b70b8	2.0778225e-06
51	0x3417c349	1.4134015e-07
52	0x34da44f8	4.0655846e-07
53	0x36422b6c	2.8933528e-06
54	0x34f8bbfc	4.6330376e-07
55	0x363522ea	2.6991424e-06
56	0x351aca90	5.766424e-07
57	0x350ae26b	5.173849e-07
58	0x36959531	4.457914e-06
59	0x343b5748	1.7447485e-07
60	0x350f506b	5.3388675e-07
61	0x362d72a6	2.5845743e-06
62	0x356e6acf	8.8817336e-07
63	0x358cafee	1.0482015e-06
64	0x349e6cdf	2.9509008e-07
65	0x34b601d7	3.390148e-07
66	0x34fd3f40	4.7170943e-07
67	0x353e12bb	7.080777e-07
68	0x35939e93	1.0998505e-06
69	0x34d86f5f	4.0314168e-07
70	0x358afad7	1.0354805e-06
71	0x359032c1	1.0743607e-06
72	0x343bc7f7	1.7488479e-07
73	0x34a75f5d	3.117556e-07
74	0x35697591	8.6970346e-07
75	0x34b685f6	3.399761e-07
76	0x34fac3ee	4.6708686e-07
77	0x345c7450	2.0531411e-07
78	0x34faeb9a	4.6737551e-07
79	0x34bee4c8	3.5556718e-07
80	0x351c55b4	5.8239243e-07
81	0x34d541f7	3.9722337e-07
82	0x345ae234	2.0385124e-07
83	0x3524515f	6.121317e-07
84	0x34fd0287	4.712676e-07
85	0x346029d1	2.0876838e-07
86	0x34a70387	3.110874e-07
87	0x349d8643	2.9341217e-07
88	0x34d2338d	3.9153056e-07
89	0x3528db1d	6.290373e-07
90	0x350b15b9	5.1813146e-07
91	0x3573704e	9.068798e-07
92	0x34d5811c	3.976828e-07
93	0x34ab8c14	3.1953152e-07
94	0x355e52b5	8.28218e-07
95	0x341b01e5	1.4436189e-07
96	0x359a516b	1.149759e-06
97	0x34c7e60d	3.7234022e-07
98	0x34afcbde	3.2744623e-07
99	0x3488b1fb	2.5461472e-07
100	0x348b2ed6	2.5924845e-07
101	0x34a47062	3.062915e-07
102	0x34b3894c	3.3441245e-07
103	0x349d0f6f	2.9254758e-07
104	0x34c9b639	3.7571752e-07
105	0x350d7ac3	5.2705235e-07
106	0x357543b1	9.1368116e-07
107	0x34ad6898	3.2299863e-07
108	0x3494381a	2.7607967e-07
109	0x34c5e469	3.68603e-07
110	0x3492cb5e	2.7342588e-07
111	0x34b3c1ea	3.348244e-07
112	0x35d451e1	1.5819061e-06
113	0x3538ff18	6.891655e-07
114	0x3411197e	1.3513451e-07
115	0x34116cc0	1.354374e-07
116	0x34879904	2.5257043e-07
117	0x34ba3e96	3.4690737e-07
118	0x3492bf87	2.7333974e-07
119	0x34bba22f	3.4949468e-07
120	0x347d7c97	2.3607787e-07
121	0x348f913b	2.6741495e-07
122	0x34976f16	2.8206767e-07
123	0x340aedf6	1.2938821e-07
124	0x34c3bcf2	3.6459056e-07
125	0x35462a4d	7.3822304e-07
126	0x3468511f	2.1636195e-07
127	0x341ef517	1.480406e-07
128	0x349f0851	2.962211e-07
129	0x330c0d04	3.2608128e-08
130	0x3587b587	1.0111115e-06
131	0x345e4773	2.0701354e-07
132	0x35899e7b	1.0253419e-06
133	0x35b17fd4	1.322473e-06
134	0x344fed91	1.9364803e-07
135	0x3529ca4d	6.325179e-07
136	0x3423041b	1.5182052e-07
137	0x34ca4517	3.7675701e-07
138	0x3592aa6c	1.0927447e-06
139	0x3509bd7e	5.1312225e-07
140	0x3573ae4f	9.0778207e-07
141	0x32ebdfb5	2.745933e-08
142	0x34f7e844	4.617633e-07
143	0x333d04ae	4.4009248e-08
144	0x347bff21	2.3469012e-07
145	0x345e0ed6	2.0680758e-07
146	0x32c1dc91	2.2568459e-08
147	0x34af4f21	3.2653864e-07
148	0x3558cb2b	8.076192e-07
149	0x33e6f1c6	1.0754188e-07
150	0x356ac403	8.745703e-07
151	0x35e91241	1.7365165e-06
152	0x34d6db3f	4.002013e-07
153	0x3464d4d9	2.1311588e-07
154	0x35a9d920	1.2654673e-06
155	0x34c32db2	3.6354828e-07
156	0x33633389	5.2899427e-08
157	0x3332f7b2	4.1669132e-08
158	0x348baa9a	2.6014897e-07
159	0x328c6ba5	1.6347096e-08
160	0x35adabd4	1.2939513e-06
161	0x333f68ca	4.4565958e-08
162	0x35576567	8.02413e-07
163	0x348b9412	2.5998503e-07
164	0x340b49af	1.297219e-07
165	0x3326aee5	3.8808952e-08
166	0x351c8df4	5.83211e-07
167	0x34a3b6d7	3.049415e-07
168	0x339d3ddd	7.322135e-08
169	0x3574354b	9.0974635e-07
170	0x34e9fdbd	4.358425e-07
171	0x34ea3f37	4.363189e-07
172	0x338065f1	5.9790075e-08
173	0x3506914d	5.013033e-07
174	0x336f25f7	5.5681053e-08
175	0x33971b66	7.036469e-08
176	0x35e31657	1.691932e-06
177	0x35513889	7.7940837e-07
178	0x352de043	6.4773866e-07
179	0x32a28b2d	1.8922572e-08
180	0x3365dadd	5.3517272e-08
181	0x3542b89d	7.253928e-07
182	0x33a7814a	7.800061e-08
183	0x3545c0b6	7.366865e-07
184	0x3422fdfa	1.5179822e-07
185	0x33bae4f0	8.7029434e-08
186	0x35a42d56	1.2232147e-06
187	0x327619d5	1.4324958e-08
188	0x33b39eb4	8.364205e-08
189	0x34e1cf59	4.206038e-07
190	0x342643f4	1.5484676e-07
191	0x34f27d4e	4.5167184e-07
192	0x34c8056f	3.7256856e-07
193	0x34b5bec4	3.3852677e-07
194	0x358971f3	1.0240459e-06
195	0x34fa4bc9	4.662127e-07
196	0x35206641	5.9753444e-07
197	0x34b975d9	3.454468e-07
198	0x350378b1	4.897693e-07
199	0x3538b69e	6.8811084e-07
200	0x342394af	1.5234649e-07
201	0x347af1d1	2.3371037e-07
202	0x350b3844	5.186341e-07
203	0x34d30357	3.9304243e-07
204	0x34a087f1	2.9901233e-07
205	0x343a06cf	1.7325077e-07
206	0x3521e620	6.031205e-07
207	0x34af8344	3.2691798e-07
208	0x34d38b07	3.9402968e-07
209	0x3474d333	2.2801105e-07
210	0x34357dc8	1.6902698e-07
211	0x35000cd4	4.7702383e-07
212	0x3514fe06	5.550395e-07
213	0x34464844	1.8466477e-07
214	0x34b2cd4b	3.3304454e-07
215	0x358b704e	1.0388992e-06
216	0x34fe362a	4.7350596e-07
217	0x34b46ebe	3.3608188e-07
218	0x35527acc	7.840979e-07
219	0x3517ff03	5.6622974e-07
220	0x34d66751	3.993578e-07
221	0x349f8bd9	2.971781e-07
222	0x34f459e2	4.551394e-07
223	0x33e263bf	1.0542089e-07
224	0x359c2904	1.1634843e-06
225	0x34dc6dc0	4.1058047e-07
226	0x34b78cc7	3.4188835e-07
227	0x34d9e5e4	4.0586667e-07
228	0x34604e7e	2.0890181e-07
229	0x34ab9274	3.195779e-07
230	0x34a02b52	2.9833842e-07
231	0x3480dd50	2.4002884e-07
232	0x34d1403d	3.8976023e-07
233	0x3481ba63	2.4163737e-07
234	0x351843a4	5.672284e-07
235	0x34fa1459	4.6580934e-07
236	0x34a2cdd3	3.0324608e-07
237	0x34b1d896	3.3126406e-07
238	0x349778b1	2.8213756e-07
239	0x34bba2d3	3.4949935e-07
240	0x358bd0ca	1.0417073e-06
241	0x353eb836	7.104858e-07
242	0x342b6868	1.5963599e-07
243	0x33e04b78	1.04445405e-07
244	0x348f331a	2.6673007e-07
245	0x34df54db	4.1598727e-07
246	0x34a67d22	3.1010956e-07
247	0x34985278	2.837221e-07
248	0x3495c5e8	2.7897408e-07
249	0x34a8f585	3.1471077e-07
250	0x34ec5bbd	4.4025174e-07
251	0x33d771d2	1.00324215e-07
252	0x34e5768d	4.274083e-07
253	0x35021d86	4.8471736e-07
254	0x3455d520	1.9914705e-07
255	0x34e03e14	4.176842e-07

exp_avg f4 [128]
0	0x2da908ae	1.921693e-11
1	0x2bfd60ff	1.8003653e-12
2	0xad4da5e4	-1.1689736e-11
3	0xac8bef6e	-3.9771996e-12
4	0x2d4d03ba	1.1653728e-11
5	0xad86f19b	-1.534133e-11
6	0x2c4b9ec6	2.8936172e-12
7	0x2a5b1ce0	1.9461125e-13
8	0xad7fc7da	-1.4539448e-11
9	0xac23bb10	-2.3267534e-12
10	0x2c1bde85	2.2150348e-12
11	0x2b76e6bf	8.771698e-13
12	0x2c52d298	2.9959698e-12
13	0xae1b4fa4	-3.5313655e-11
14	0x2d00d110	7.322379e-12
15	0x2c6d46b7	3.371898e-12
16	0x2e11963a	3.310261e-11
17	0xad80e221	-1.4652337e-11
18	0xada20a06	-1.8421719e-11
19	0xad98fa46	-1.7391543e-11
20	0x2c4acd14	2.8819768e-12
21	0xadfc15ba	-2.8658732e-11
22	0x2c114705	2.0645163e-12
23	0x29f10038	1.0702588e-13
24	0x2b3cd754	6.7089845e-13
25	0xadb25873	-2.0275536e-11
26	0xace4df28	-6.504925e-12
27	0x2d8e2816	1.6161333e-11
28	0x2c0e7100	2.0242141e-12
29	0x2cb336d2	5.0935723e-12
30	0xad46a584	-1.1291749e-11
31	0xad0bcc0b	-7.946542e-12
32	0x2de0bc70	2.5549535e-11
33	0xaba3ce61	-1.1639128e-12
34	0x2e36dcc2	4.157808e-11
35	0x2d6aaf16	1.3340237e-11
36	0xabdda928	-1.5749945e-12
37	0x2c217930	2.2946749e-12
38	0xac1d41ec	-2.2347636e-12
39	0x2db1269f	2.0139721e-11
40	0xacf9c79d	-7.099167e-12
41	0x2ba6e3f8	1.1858283e-12
42	0xada4b51e	-1.8725074e-11
43	0x2a1b1954	1.3775553e-13
44	0x2c208dbb	2.2816044e-12
45	0xad2aab93	-9.701478e-12
46	0x29a6aca0	7.4018265e-14
47	0x2c8280fa	3.7091415e-12
48	0xab644172	-8.1092695e-13
49	0x2d9762cd	1.7210589e-11
50	0x2e072327	3.0726668e-11
51	0x2b963538	1.0672912e-12
52	0x2d060bc6	7.619632e-12
53	0x2c9375b0	4.1910572e-12
54	0xab34e2ab	-6.426341e-13
55	0x2ca728ea	4.750968e-12
56	0x2d9f5d8e	1.8117754e-11
57	0x2c4a2474	2.8726162e-12
58	0xae078132	-3.0810195e-11
59	0x2bb540b3	1.2878781e-12
60	0xac5a13be	-3.0990622e-12
61	0xad4d13d6	-1.1657305e-11
62	0x2db0e4e8	2.0110538e-11
63	0x2c0246c6	1.8513398e-12
64	0xade9151e	-2.6498411e-11
65	0x2de7c53c	2.634925e-11
66	0x2c214952	2.2920177e-12
67	0x2c5f5b63	3.1740936e-12
68	0xad577802	-1.2247982e-11
69	0x2ca558de	4.6994483e-12
70	0xad38c587	-1.0503049e-11
71	0x2dac964f	1.9620887e-11
72	0x2c57a166	3.0642932e-12
73	0x2bef1bda	1.6989702e-12
74	0x2dfc23d1	2.8664989e-11
75	0xac005006	-1.8234316e-12
76	0xaaab3580	-3.0412825e-13
77	0x2bb485e7	1.2826935e-12
78	0xacadb300	-4.9368287e-12
79	0x2c9292ac	4.1658534e-12
80	0x2dffb3ce	2.9069993e-11
81	0x2c135788	2.0938546e-12
82	0x2a04297f	1.1738352e-13
83	0x2db6fd86	2.0803591e-11
84	0x2e00252c	2.9136846e-11
85	0xac731155	-3.4541998e-12
86	0x2ce90f42	6.6239523e-12
87	0xade76ee7	-2.631091e-11
88	0xac592b82	-3.0861706e-12
89	0x2d877c69	1.5402972e-11
90	0x2ccee444	5.8802147e-12
91	0xad2584a8	-9.40862e-12
92	0x2bbb7c5f	1.3321669e-12
93	0x2cd07379	5.9245356e-12
94	0x2cb7ed3b	5.2275107e-12
95	0xad1ab8ac	-8.794892e-12
96	0xad66c728	-1.3118208e-11
97	0x2d560a0a	1.2166721e-11
98	0x2c7bb13c	3.576763e-12
99	0xad6c49a8	-1.3431402e-11
100	0xad34d9b0	-1.0280152e-11
101	0xacb0f004	-5.028868e-12
102	0xac5475d2	-3.0192415e-12
103	0xac3d7f60	-2.6929223e-12
104	0xab373b78	-6.509719e-13
105	0xaccdee36	-5.852897e-12
106	0x2d886009	1.5504058e-11
107	0xae3ebe7c	-4.3370182e-11
108	0x2d829d93	1.4849266e-11
109	0x2c94f3fe	4.2335016e-12
110	0x2bdb50b4	1.5583286e-12
111	0x2cc6fc5b	5.6555156e-12
112	0xacbbb2e3	-5.33472e-12
113	0x2c8204f6	3.695373e-12
114	0x2c80349e	3.6438205e-12
115	0xac52e4bd	-2.996977e-12
116	0x2c085747	1.937521e-12
117	0x2c71abd2	3.434354e-12
118	0x2cb9e21c	5.2831194e-12
119	0x29b4e8e0	8.034003e-14
120	0x2e28d78a	3.8390215e-11
121	0x2c419ec2	2.7515078e-12
122	0xad1e0847	-8.983098e-12
123	0xae538b84	-4.809976e-11
124	0xac9a4817	-4.384947e-12
125	0x2bf1ff9c	1.7195026e-12
126	0x2bd9b56d	1.5469133e-12
127	0x2d531cd7	1.2000365e-11

exp_avg_sq f4 [128]
0	0x1ed5b10b	2.2625475e-20
1	0x1e006298	6.796652e-21
2	0x1df4f7b3	6.4842377e-21
3	0x1e897d5d	1.4557288e-20
4	0x1e3e000c	1.0058526e-20
5	0x1d4544b8	2.610826e-21
6	0x1d4658d1	2.6250999e-21
7	0x1ca955a3	1.1205618e-21
8	0x1dab4345	4.533288e-21
9	0x1e2d2f9c	9.168389e-21
10	0x1e2d3763	9.1699974e-21
11	0x1cb69441	1.2082072e-21
12	0x1d92b694	3.883466e-21
13	0x1ec12671	2.0450569e-20
14	0x1ecddadd	2.1795739e-20
15	0x1e1f1a46	8.422823e-21
16	0x1ecb3c6c	2.1518451e-20
17	0x1e873791	1.4316663e-20
18	0x1d2170e3	2.1366534e-21
19	0x1e9d0fd8	1.6629574e-20
20	0x1d37e1e1	2.4336625e-21
21	0x1e4c3095	1.0809717e-20
22	0x1c6cedc8	7.8393175e-22
23	0x1cca3498	1.3380834e-21
24	0x1cd971ec	1.4389304e-21
25	0x1ee72d47	2.4476803e-20
26	0x1e41f530	1.02680385e-20
27	0x1df0f71b	6.3782972e-21
28	0x1e760364	1.3023833e-20
29	0x1df7862a	6.551908e-21
30	0x1da96b2e	4.484475e-21
31	0x1e09e040	7.2990934e-21
32	0x1e5499bc	1.1254978e-20
33	0x1d922775	3.8686676e-21
34	0x1e5ce58c	1.1694172e-20
35	0x1dc5c0f4	5.2344975e-21
36	0x1d10f5b2	1.9185263e-21
37	0x1c4aaee8	6.7062255e-22
38	0x1d6b2311	3.112012e-21
39	0x1de99df7	6.183792e-21
40	0x1c98e64a	1.0118045e-21
41	0x1d8d4fa2	3.7404728e-21
42	0x1e3f3d3e	1.012412e-20
43	0x1c96083a	9.928294e-22
44	0x1de4aaa7	6.0527548e-21
45	0x1dacfac2	4.57873e-21
46	0x1ca77cac	1.108336e-21
47	0x1ccf61a7	1.3723353e-21
48	0x1db93912	4.90281e-21
49	0x1ec8afb7	2.1248498e-20
50	0x1e0e38c6	7.529158e-21
51	0x1dfb2ee5	6.6487635e-21
52	0x1e0d5885	7.482783e-21
53	0x1c935c91	9.751572e-22
54	0x1cef2aeb	1.5826787e-21
55	0x1e882994	1.4416756e-20
56	0x1d1d2388	2.0797146e-21
57	0x1df04277	6.3596194e-21
58	0x1e755426	1.29875935e-20
59	0x1c301d42	5.827133e-22
60	0x1cc17847	1.280276e-21
61	0x1e40cdcf	1.02069556e-20
62	0x1e21ea47	8.5717165e-21
63	0x1c18d7d8	5.0571553e-22
64	0x1f15ae83	3.169633e-20
65	0x1e1712fa	7.997798e-21
66	0x1ca55d69	1.094293e-21
67	0x1cf23ed9	1.6030462e-21
68	0x1e1cbeca	8.2980255e-21
69	0x1cc12f8c	1.2783959e-21
70	0x1dba992f	4.939218e-21
71	0x1eb7b7de	1.9451924e-20
72	0x1d1c0042	2.0646561e-21
73	0x1d244f10	2.1746094e-21
74	0x1e829e13	1.3829663e-20
75	0x1c5e9a08	7.365272e-22
76	0x1dc1987e	5.1244348e-21
77	0x1d6c2d4e	3.1257762e-21
78	0x1ca036ad	1.0602045e-21
79	0x1c730aa8	8.041573e-22
80	0x1e11b03f	7.712683e-21
81	0x1d529950	2.787253e-21
82	0x1d3a5372	2.4660035e-21
83	0x1e2c19f6	9.110973e-21
84	0x1e5517ea	1.12810714e-20
85	0x1d47cb6e	2.6442601e-21
86	0x1e4f4aa7	1.09739265e-20
87	0x1e5fadb8	1.1841446e-20
88	0x1d189ffc	2.0199742e-21
89	0x1d8f9344	3.8004054e-21
90	0x1e04f21e	7.0380905e-21
91	0x1f09a0cd	2.914389e-20
92	0x1ca15f2d	1.0678689e-21
93	0x1cd09fbf	1.3805579e-21
94	0x1de8fe29	6.1672684e-21
95	0x1e7e329c	1.3457114e-20
96	0x1e5cae37	1.168273e-20
97	0x1e10b4d9	7.660695e-21
98	0x1c18abe6	5.0514755e-22
99	0x1e0f2cc6	7.579616e-21
100	0x1e25d366	8.7787434e-21
101	0x1e3c2692	9.960613e-21
102	0x1c879df1	8.974378e-22
103	0x1c78da14	8.2338176e-22
104	0x1e5a1e8a	1.1547139e-20
105	0x1d058da2	1.7675626e-21
106	0x1ea1ddd0	1.7138278e-20
107	0x1e380d9d	9.743694e-21
108	0x1d703fd2	3.179673e-21
109	0x1e307f3e	9.3436755e-21
110	0x1d77b7a5	3.278512e-21
111	0x1d1022bd	1.90762e-21
112	0x1ce1d752	1.494491e-21
113	0x1d6bec9d	3.1224317e-21
114	0x1e428fe5	1.0300031e-20
115	0x1c5d370d	7.319392e-22
116	0x1dcce0b5	5.423069e-21
117	0x1cce51b0	1.3653052e-21
118	0x1d49ef6b	2.6725905e-21
119	0x1d61d5f6	2.9889117e-21
120	0x1e31bd9e	9.409514e-21
121	0x1c936dba	9.756008e-22
122	0x1dd75235	5.6995026e-21
123	0x1eecd200	2.5074326e-20
124	0x1dc155bb	5.1175318e-21
125	0x1be186ce	3.7310243e-22
126	0x1cf04d1c	1.59018e-21
127	0x1d79f6ec	3.3082531e-21
