data/img_ad_vae_weights-v0.ckpt (torch, 569127 bytes, 105 tensors)

exp_avg f4 [2, 14]
0	0x3a8544c7	0.0010167592
1	0x3b1229c0	0.0022302717
2	0xbb5f2d39	-0.0034054054
3	0xba5bd4d8	-0.0008385903
4	0xb959e659	-0.00020780544
5	0xbb184290	-0.0023233034
6	0xbabb94a0	-0.0014311261
7	0x3abfa037	0.0014619891
8	0x3b480906	0.0030522957
9	0x3b8b30f4	0.004247779
10	0x39eecab1	0.00045545914
11	0xbab5def6	-0.0013875652
12	0x3b171bee	0.002305742
13	0xb9d44788	-0.00040489086
14	0xb862e158	-5.4092467e-05
15	0x399e19da	0.0003015537
16	0x396730e6	0.00022048093
17	0xb9d8a9e0	-0.00041325297
18	0xb8d0bc75	-9.953316e-05
19	0xb918ccf3	-0.00014572199
20	0x37c92e74	2.3982699e-05
21	0x39df796a	0.00042624335
22	0xb95580d2	-0.00020361252
23	0x39a39e8d	0.00031207912
24	0x38758224	5.8533755e-05
25	0xba3d12f8	-0.00072126044
26	0x39de568d	0.00042407625
27	0xb8c6be14	-9.4767805e-05

exp_avg_sq f4 [2, 14]
0	0x38cf9c2e	9.89962e-05
1	0x3883d783	6.286709e-05
2	0x3811ae01	3.4732748e-05
3	0x389aaaa7	7.375079e-05
4	0x379c9eae	1.867054e-05
5	0x38662b39	5.4876527e-05
6	0x384e8af0	4.9243623e-05
7	0x3861f85d	5.3875487e-05
8	0x380ad66f	3.310147e-05
9	0x385e6382	5.30216e-05
10	0x38263596	3.962739e-05
11	0x387bca4e	6.0031474e-05
12	0x3890b7c0	6.900681e-05
13	0x38933cec	7.020854e-05
14	0x3794cfdf	1.7739772e-05
15	0x37495c3d	1.20020095e-05
16	0x36c9acd6	6.0103876e-06
17	0x378d84ce	1.6870352e-05
18	0x369c200e	4.652894e-06
19	0x373ab098	1.112758e-05
20	0x370a09f1	8.227756e-06
21	0x3731395f	1.056338e-05
22	0x37015237	7.708141e-06
23	0x375327ba	1.258583e-05
24	0x3717c698	9.04654e-06
25	0x377815c4	1.478702e-05
26	0x376d3761	1.4139195e-05
27	0x3743ce0e	1.1670882e-05

exp_avg f4 [64, 27]
0	0x361d1338	2.340601e-06
1	0x36c96410	6.0019156e-06
2	0x356cb65a	8.818221e-07
3	0xb6c4f9dc	-5.8703426e-06
4	0xb4653bcc	-2.1349041e-07
5	0xb6b3cff8	-5.3588265e-06
6	0xb649558b	-3.0001127e-06
7	0x36824d90	3.8833314e-06
8	0xb6133e1a	-2.1940855e-06
9	0x3679e55a	3.7237392e-06
10	0x3591ce52	1.0863389e-06
11	0xb6c44090	-5.8487713e-06
12	0x370119f8	7.6950455e-06
13	0x3535a645	6.766971e-07
14	0xb98a74b1	-0.00026408353
15	0xb938dd56	-0.00017630061
16	0x39a47c7a	0.0003137326
17	0xb9267f5b	-0.00015878437
18	0xb982e654	-0.0002496714
19	0xb923686d	-0.00015583793
20	0xb9158298	-0.00014258397
21	0xb98bdc18	-0.0002667613
22	0xb8db4784	-0.000104560546
23	0x38852e22	6.350527e-05
24	0xba192511	-0.000584201
25	0xb9d26dd8	-0.0004013616
26	0xb90114b8	-0.00012310117
27	0xb5d3fefa	-1.5794933e-06
28	0xb6945c3e	-4.421482e-06
29	0x35f36105	1.8133147e-06
30	0x36a0b6d4	4.7896556e-06
31	0x3261a89a	1.3135059e-08
32	0x36933dc9	4.388134e-06
33	0x362c2419	2.5651009e-06
34	0xb62ef0e5	-2.606824e-06
35	0x33989dd5	7.106761e-08
36	0xb6214f07	-2.403687e-06
37	0xb41b7729	-1.447885e-07
38	0x368b5bef	4.1532253e-06
39	0xb6bfdd0a	-5.717976e-06
40	0xb48a3433	-2.5742483e-07
41	0x3981d37e	0.0002476237
42	0xb827807c	-3.9935563e-05
43	0xb7e298ec	-2.701251e-05
44	0x3925791e	0.00015780746
45	0x39879827	0.0002586257
46	0xb901a720	-0.00012364658
47	0x39187886	0.00014540748
48	0x39695412	0.0002225193
49	0xb82ff692	-4.1952888e-05
50	0x391dd187	0.00015050742
51	0x38bbc6d8	8.9538924e-05
52	0x391238c6	0.00013944795
53	0x394cd173	0.00019532982
54	0xb5a367f3	-1.21747e-06
55	0xb65acae7	-3.2602636e-06
56	0x345aa3f2	2.0362475e-07
57	0x365f6d46	3.3293195e-06
58	0x344dfec0	1.918479e-07
59	0x36466ff2	2.956946e-06
60	0x35e76bd6	1.7242226e-06
61	0xb60d142d	-2.102238e-06
62	0x353c89e6	7.0236126e-07
63	0xb60e17cf	-2.1173507e-06
64	0xb5005435	-4.7806253e-07
65	0x364cd8a1	3.0524463e-06
66	0xb68d5734	-4.2122792e-06
67	0xb4ec29c8	-4.3988825e-07
68	0x38eadaae	0.00011198722
69	0x389f4f31	7.5964614e-05
70	0x3938bb06	0.00017617279
71	0x3965e66d	0.00021924982
72	0x38890e0e	6.535287e-05
73	0xb99a5bbb	-0.00029441513
74	0x39518239	0.00019980305
75	0x3998e00a	0.0002915862
76	0xba3e8cb1	-0.00072688895
77	0x38d0a0bd	9.948153e-05
78	0x38693a48	5.5605808e-05
79	0x38b7bc19	8.761156e-05
80	0x39092f72	0.00013083013
81	0x33e69e10	1.0738961e-07
82	0x35bf9558	1.4274074e-06
83	0x359c15b4	1.1629222e-06
84	0xb5cc50b0	-1.5222668e-06
85	0xb5298052	-6.3144137e-07
86	0xb562fb50	-8.455727e-07
87	0xb52e8028	-6.5006543e-07
88	0x3598ab2a	1.1374698e-06
89	0xb5061c7c	-4.996034e-07
90	0x358d12d0	1.0510794e-06
91	0x34af01c2	3.259757e-07
92	0xb53250d0	-6.6427765e-07
93	0x35fd0210	1.8850569e-06
94	0x35ad3eea	1.2907815e-06
95	0xb9218c6a	-0.00015406465
96	0xb834e318	-4.312684e-05
97	0x389190bf	6.9411e-05
98	0xb84090de	-4.5911285e-05
99	0xb9c58bca	-0.0003767892
100	0x39951358	0.00028433907
101	0x38669c62	5.4981916e-05
102	0xb9edf648	-0.00045387656
103	0x3981293a	0.00024635514
104	0x39b0f209	0.00033749666
105	0x39b578fa	0.00034613145
106	0xb99cca82	-0.0002990552
107	0xb8b74406	-8.73879e-05
108	0x361d6d3b	2.3458404e-06
109	0x36ce550c	6.149179e-06
110	0xb56bf9ca	-8.7907813e-07
111	0xb6d9e6d2	-6.493975e-06
112	0xb4b4780e	-3.3614964e-07
113	0xb6c2cfff	-5.8058645e-06
114	0xb660a65e	-3.347544e-06
115	0x368016a2	3.817332e-06
116	0xb5d19e9f	-1.5617878e-06
117	0x3650dee3	3.1124152e-06
118	0x35542d70	7.9042275e-07
119	0xb6cd72d7	-6.122845e-06
120	0x370752de	8.065921e-06
121	0x35824441	9.705619e-07
122	0xb8ea51c4	-0.000111732195
123	0xba44cf1c	-0.00075076683
124	0x3a7e5a0a	0.0009702748
125	0xb9326530	-0.00017013098
126	0xba4c5c86	-0.00077957695
127	0x3a308b57	0.00067346304
128	0xba29d3cd	-0.0006478399
129	0xb99e3f34	-0.00030183198
130	0x3a9cff64	0.0011977968
131	0xb8b4f8f4	-8.62944e-05
132	0xb92ea006	-0.00016653546
133	0xb9f12a70	-0.0004599872
134	0xb802a27b	-3.1145737e-05
135	0xb541dd30	-7.2219973e-07
136	0xb6090112	-2.0415214e-06
137	0xb5234606	-6.082413e-07
138	0x3605f44d	1.9960746e-06
139	0x34c5860b	3.6791639e-07
140	0x35e755da	1.7235827e-06
141	0x35873906	1.007488e-06
142	0xb5c053e6	-1.4329532e-06
143	0x353b1b62	6.9702776e-07
144	0xb5a6fbf6	-1.2441294e-06
145	0xb5083a52	-5.0748815e-07
146	0x35f18ca0	1.7996827e-06
147	0xb62ef612	-2.6071252e-06
148	0xb536519f	-6.791906e-07
149	0x38b386d6	8.5605e-05
150	0x374a8989	1.2072161e-05
151	0xb7043740	-7.880677e-06
152	0x391c81c6	0.00014925664
153	0x37db24f6	2.6124046e-05
154	0xb98164aa	-0.00024679798
155	0x38ca72bc	9.6534815e-05
156	0x393e104f	0.00018125887
157	0xb998f83b	-0.00029176645
158	0xb6f7ee40	-7.3889096e-06
159	0xb90acecb	-0.00013237742
160	0x3844c279	4.691116e-05
161	0x38becf7c	9.098553e-05
162	0x34b2ea98	3.3325773e-07
163	0x3593bb46	1.1006857e-06
164	0xb4f3d39f	-4.5416252e-07
165	0xb582e44a	-9.752196e-07
166	0x3429da6c	1.5818813e-07
167	0xb58c139a	-1.0436518e-06
168	0xb50d1773	-5.2560716e-07
169	0x3534eff0	6.740438e-07
170	0x339c26a3	7.271344e-08
171	0x35a9fb92	1.2664698e-06
172	0x33919d2c	6.780678e-08
173	0xb58f9630	-1.0698041e-06
174	0x35ba4a4e	1.3879705e-06
175	0xb4bc5782	-3.50814e-07
176	0xb77c6ffb	-1.5046443e-05
177	0xb8175ee2	-3.6089572e-05
178	0x38b01bf2	8.397539e-05
179	0xb730da3a	-1.0541227e-05
180	0xb7c36fcc	-2.3297871e-05
181	0x3834a09d	4.3064927e-05
182	0xb7cfa6eb	-2.475405e-05
183	0x37f8f807	2.96794e-05
184	0xb812ca73	-3.4997658e-05
185	0xb83113aa	-4.2218402e-05
186	0x369a2180	4.5934576e-06
187	0xb7d4d16f	-2.5369895e-05
188	0xb7d9f62b	-2.5983047e-05
189	0x35043f54	4.9265986e-07
190	0x35b31eb4	1.3345475e-06
191	0x349503a6	2.7756067e-07
192	0xb5b9b282	-1.3835527e-06
193	0xb45e322e	-2.0693616e-07
194	0xb5a2d662	-1.2132334e-06
195	0xb53ee0f2	-7.1107854e-07
196	0x3572b71b	9.041848e-07
197	0xb4e59fca	-4.2770836e-07
198	0x3527ca08	6.250634e-07
199	0x349142d3	2.7056976e-07
200	0xb59edb0b	-1.1835667e-06
201	0x35e6e6a2	1.7203458e-06
202	0x3502daf0	4.874737e-07
203	0x38c3f51d	9.3439805e-05
204	0xb9c78c72	-0.00038060878
205	0xb919933c	-0.00014646066
206	0xb86be161	-5.6238267e-05
207	0x38fb078d	0.00011970019
208	0xb9935395	-0.00028100298
209	0xb8cd08b6	-9.776784e-05
210	0x38b5cf05	8.669313e-05
211	0xb9557012	-0.00020355012
212	0xb9117eed	-0.00013875561
213	0xba18a607	-0.000582308
214	0xb8ce2d3b	-9.83127e-05
215	0xb7107158	-8.609459e-06
216	0xb453b178	-1.9715469e-07
217	0xb517a446	-5.649093e-07
218	0x32600994	1.3040694e-08
219	0x351fe9d1	5.9572363e-07
220	0x330ba201	3.25108e-08
221	0x350e019c	5.2901464e-07
222	0x34a40558	3.0551269e-07
223	0xb4c69561	-3.698906e-07
224	0x340e1563	1.3232561e-07
225	0xb49f7a27	-2.9704935e-07
226	0xb39c1fbc	-7.2700885e-08
227	0x351834d8	5.670131e-07
228	0xb5458f9e	-7.359721e-07
229	0xb3a9febb	-7.916011e-08
230	0xb7fca64a	-3.0118175e-05
231	0x380e9dd2	3.400242e-05
232	0x39b066e2	0.0003364599
233	0x3789d524	1.6430924e-05
234	0xb901af17	-0.00012367625
235	0x399283d5	0.00027945513
236	0x3885b9cc	6.3765416e-05
237	0xb8c9529e	-9.5998155e-05
238	0x36248c74	2.4519659e-06
239	0x384376a4	4.6602116e-05
240	0xb91a8d4a	-0.00014739219
241	0xb79f2fe6	-1.8976581e-05
242	0x382ef688	4.1714433e-05
243	0xb655979d	-3.1827724e-06
244	0xb7151407	-8.885755e-06
245	0xb6285daf	-2.5088482e-06
246	0x37160fb8	8.9443565e-06
247	0x35d272f2	1.5679673e-06
248	0x36fda47b	7.5591356e-06
249	0x3696bd70	4.492402e-06
250	0xb6cf70cf	-6.1822134e-06
251	0x36458f18	2.943858e-06
252	0xb6a731c1	-4.98278e-06
253	0xb606ed3b	-2.0105642e-06
254	0x37019da0	7.725699e-06
255	0xb73d2d4f	-1.1275827e-05

exp_avg_sq f4 [64, 27]
0	0x309fbd69	1.1622606e-09
1	0x3159ecbe	3.1712228e-09
2	0x307e6d80	9.256027e-10
3	0x31e4a6c8	6.654634e-09
4	0x2e9a811e	7.026045e-11
5	0x314f3b9e	3.0156353e-09
6	0x30b5e1f0	1.3233699e-09
7	0x3114fa31	2.1679052e-09
8	0x30a95c04	1.2322521e-09
9	0x2f19778b	1.3957739e-10
10	0x2fcd6663	3.7362033e-10
11	0x31bd348e	5.5065987e-09
12	0x31b79208	5.342603e-09
13	0x2fd850c7	3.9347567e-10
14	0x36adbc49	5.177721e-06
15	0x36da0e2c	6.498556e-06
16	0x36689bfe	3.4661493e-06
17	0x3630385d	2.6258851e-06
18	0x370734f2	8.058954e-06
19	0x364fe790	3.098019e-06
20	0x36161aaa	2.2367262e-06
21	0x36eb4e2e	7.012647e-06
22	0x3631eb3e	2.6511984e-06
23	0x3689aea7	4.1032504e-06
24	0x3717c222	9.045501e-06
25	0x371519bb	8.887083e-06
26	0x36fd2518	7.544306e-06
27	0x2eeec217	1.0857464e-10
28	0x2f830609	2.383305e-10
29	0x2e8c792f	6.3879894e-11
30	0x30022024	4.73394e-10
31	0x2c6f050d	3.3966747e-12
32	0x2f7347af	2.2126188e-10
33	0x2ec3e9ee	8.9091276e-11
34	0x2f1f00ff	1.446132e-10
35	0x2ea59890	7.530432e-11
36	0x2da01dd1	1.8203135e-11
37	0x2d9c4ab7	1.7768327e-11
38	0x2fd9cdbb	3.961825e-10
39	0x2fd9e457	3.9634315e-10
40	0x2de0602c	2.550856e-11
41	0x3580a57d	9.584907e-07
42	0x33b06943	8.214786e-08
43	0x3489fb64	2.570115e-07
44	0x35748ada	9.109914e-07
45	0x34e7c446	4.316991e-07
46	0x3526f81b	6.220086e-07
47	0x357568f3	9.1422334e-07
48	0x35189727	5.684437e-07
49	0x3554fe6b	7.934638e-07
50	0x35ed33d2	1.7672958e-06
51	0x34b935d9	3.4498115e-07
52	0x3415a0a0	1.3935141e-07
53	0x3567238c	8.6105933e-07
54	0x2e11c9a2	3.314827e-11
55	0x2ed50efb	9.6887796e-11
56	0x2dd8d79a	2.4652103e-11
57	0x2f5e2c72	2.0206573e-10
58	0x2c098494	1.9542467e-12
59	0x2ec88ce9	9.119978e-11
60	0x2e28f874	3.8419448e-11
61	0x2e926e58	6.658912e-11
62	0x2e1646e5	3.416902e-11
63	0x2c99a4a1	4.366799e-12
64	0x2d358224	1.0317556e-11
65	0x2f34e49c	1.6452123e-10
66	0x2f347916	1.6413923e-10
67	0x2d47fed1	1.1368421e-11
68	0x35840c67	9.838376e-07
69	0x360db3af	2.1115227e-06
70	0x36851079	3.9656265e-06
71	0x35a9da73	1.2655058e-06
72	0x355b6723	8.173394e-07
73	0x36b68898	5.4399243e-06
74	0x35af1539	1.3044693e-06
75	0x35a3f7fd	1.221662e-06
76	0x36c5346c	5.87716e-06
77	0x360fcba4	2.1427195e-06
78	0x36465c8f	2.9558175e-06
79	0x35c7e4f0	1.4893285e-06
80	0x34d5f0ec	3.9849635e-07
81	0x2f4433f2	1.7844551e-10
82	0x3013e52f	5.380398e-10
83	0x2f22e799	1.4816094e-10
84	0x30954e92	1.0863508e-09
85	0x2d5c6be8	1.2529512e-11
86	0x300f36e4	5.21011e-10
87	0x2f73c5cd	2.2170994e-10
88	0x2fcbc390	3.706444e-10
89	0x2f4c2f35	1.8570463e-10
90	0x2e0adf4c	3.1575895e-11
91	0x2e994f6a	6.971741e-11
92	0x307a8b59	9.1147495e-10
93	0x3076d130	8.979155e-10
94	0x2e857380	6.068657e-11
95	0x358cea42	1.0498991e-06
96	0x368c1fc2	4.1760222e-06
97	0x37530e40	1.2579898e-05
98	0x35d16b89	1.560301e-06
99	0x3694b717	4.432058e-06
100	0x375161f9	1.2480182e-05
101	0x36099cfa	2.0505963e-06
102	0x3672810d	3.6135928e-06
103	0x3748b297	1.196251e-05
104	0x35b44c56	1.3433262e-06
105	0x36dd626b	6.5977706e-06
106	0x3683ca3c	3.9276474e-06
107	0x358dba5a	1.0559554e-06
108	0x3024caa9	5.995085e-10
109	0x30e5ee54	1.672968e-09
110	0x2ffce327	4.5999934e-10
111	0x3162a2d4	3.2979885e-09
112	0x2e0d42f1	3.2119144e-11
113	0x30d6a362	1.5616985e-09
114	0x303988be	6.749693e-10
115	0x309bf412	1.1347103e-09
116	0x3027e797	6.1083355e-10
117	0x2edc322f	1.0013356e-10
118	0x2f655add	2.085971e-10
119	0x3143e3bf	2.8505693e-09
120	0x3142aa71	2.83276e-09
121	0x2f6a90a3	2.1333561e-10
122	0x36f1e20b	7.2086746e-06
123	0x37e55a70	2.734104e-05
124	0x381a326b	3.6763417e-05
125	0x36b7523c	5.4633983e-06
126	0x37852623	1.5872594e-05
127	0x3801906e	3.0890507e-05
128	0x373129c8	1.055975e-05
129	0x37953686	1.7787574e-05
130	0x387657bc	5.873268e-05
131	0x378ccf08	1.6785707e-05
132	0x378ceb0c	1.6798753e-05
133	0x378dd7dd	1.6909029e-05
134	0x3689ba38	4.104597e-06
135	0x2e31ea02	4.045298e-11
136	0x2f0945a3	1.2484817e-10
137	0x2e089cb6	3.1062007e-11
138	0x2f9213b3	2.6571242e-10
139	0x2c26cd91	2.3704131e-12
140	0x2efd3205	1.1513993e-10
141	0x2e3d8473	4.3091263e-11
142	0x2ebb33ce	8.512978e-11
143	0x2e3bc218	4.2691267e-11
144	0x2cc64dd3	5.6361387e-12
145	0x2d835d76	1.493448e-11
146	0x2f61843d	2.0510611e-10
147	0x2f681a53	2.110963e-10
148	0x2d763d37	1.39970735e-11
149	0x3545a23b	7.3624295e-07
150	0x35444ebf	7.313028e-07
151	0x363b0d89	2.787305e-06
152	0x35807de7	9.573386e-07
153	0x3548ab06	7.475468e-07
154	0x367891b6	3.7039695e-06
155	0x358d7c98	1.054158e-06
156	0x357e8ad7	9.482441e-07
157	0x36867751	4.0074015e-06
158	0x35af962c	1.3082222e-06
159	0x35e47d43	1.702378e-06
160	0x34b60a2a	3.3907537e-07
161	0x34ce69d9	3.8447504e-07
162	0x2ec58bc8	8.983353e-11
163	0x2f80fa1e	2.3460783e-10
164	0x2e94d48f	6.768019e-11
165	0x300934d3	4.991538e-10
166	0x2ca16a2a	4.587682e-12
167	0x2f75c414	2.2352281e-10
168	0x2ed9a9c3	9.898173e-11
169	0x2f2f7a11	1.5959524e-10
170	0x2eb30aa1	8.141866e-11
171	0x2d646a59	1.2983913e-11
172	0x2dd76e6a	2.4491704e-11
173	0x2fe480a4	4.1564363e-10
174	0x2fd81950	3.9308157e-10
175	0x2df0e072	2.7384515e-11
176	0x3506b993	5.0188936e-07
177	0x35bfda26	1.4294098e-06
178	0x3553eb43	7.8945976e-07
179	0x35126770	5.453976e-07
180	0x35b90f6c	1.3788062e-06
181	0x353845e2	6.8647034e-07
182	0x351df101	5.8837765e-07
183	0x359ff8a5	1.1918788e-06
184	0x3527cca4	6.251014e-07
185	0x34aba73e	3.1972917e-07
186	0x3664d877	3.4100647e-06
187	0x35a58e9b	1.2334962e-06
188	0x35251902	6.150368e-07
189	0x2e2830b2	3.8242028e-11
190	0x2edad039	9.95048e-11
191	0x2e00e896	2.931041e-11
192	0x2f6ff6b3	2.1824569e-10
193	0x2bee5a5d	1.6935998e-12
194	0x2ed9a240	9.896839e-11
195	0x2e409218	4.3785503e-11
196	0x2e9d8443	7.163028e-11
197	0x2e211c6a	3.66324e-11
198	0x2cdaebff	6.2221335e-12
199	0x2d7965e2	1.4176634e-11
200	0x2f3c68c0	1.7135715e-10
201	0x2f3ab343	1.6980288e-10
202	0x2d4eed78	1.1762473e-11
203	0x3522c78e	6.0640093e-07
204	0x3609125f	2.0425284e-06
205	0x369ae63a	4.6163595e-06
206	0x35609c6a	8.3674115e-07
207	0x3517f4b6	5.6607985e-07
208	0x3694faa7	4.4399235e-06
209	0x3583276c	9.771734e-07
210	0x34b46386	3.3600026e-07
211	0x369577f6	4.4545113e-06
212	0x35a5d98a	1.235677e-06
213	0x36104dbb	2.1502917e-06
214	0x3542c8fb	7.2563097e-07
215	0x34ca2dce	3.765876e-07
216	0x2d547dc1	1.2078728e-11
217	0x2e52818f	4.7863543e-11
218	0x2d2c76a6	9.803413e-12
219	0x2edde63a	1.0090813e-10
220	0x2b11df4c	5.1824235e-13
221	0x2e43913b	4.4466857e-11
222	0x2d546d00	1.2075008e-11
223	0x2e0e894a	3.2409e-11
224	0x2d8b12ec	1.5810873e-11
225	0x2bfab324	1.781329e-12
226	0x2cba6c3c	5.2984544e-12
227	0x2ea0fc05	7.320725e-11
228	0x2ea74210	7.606016e-11
229	0x2cb2ced5	5.0820272e-12
230	0x33a9169f	7.8737905e-08
231	0x35644b92	8.504659e-07
232	0x351b7dc4	5.792501e-07
233	0x33b7302a	8.5303625e-08
234	0x34f9a929	4.6502944e-07
235	0x3494b6e5	2.7700221e-07
236	0x33bd3056	8.8097906e-08
237	0x34cc6cbf	3.8077084e-07
238	0x34372948	1.7058221e-07
239	0x34c8ae5c	3.7379766e-07
240	0x358fd2b2	1.0715651e-06
241	0x34c196e5	3.6058842e-07
242	0x338b1be9	6.477769e-08
243	0x2fb82df3	3.3502054e-10
244	0x307eddb0	9.27197e-10
245	0x2f951fe4	2.7125602e-10
246	0x3105538d	1.940154e-09
247	0x2dbf0b7a	2.1719283e-11
248	0x306ea956	8.6824536e-10
249	0x2fe24a0c	4.1161774e-10
250	0x302bdd09	6.252355e-10
251	0x2fbba599	3.4132766e-10
252	0x2e778951	5.628326e-11
253	0x2f0777c4	1.2320728e-10
254	0x30d72eb1	1.5656579e-09
255	0x30d792be	1.5685016e-09

exp_avg f4 [64]
0	0xad85eb29	-1.5224782e-11
1	0x2c9f8f5f	4.534969e-12
2	0xad6f782a	-1.3612259e-11
3	0xad32d37a	-1.0165086e-11
4	0xae9c5f6e	-7.1110104e-11
5	0xaa3adac0	-1.6596013e-13
6	0xac77d646	-3.5219757e-12
7	0x2d289ed4	9.584961e-12
8	0xac455b6b	-2.804613e-12
9	0x2e0d04be	3.20639e-11
10	0x2e8d734e	6.43242e-11
11	0x2dba4422	2.1176009e-11
12	0x2e068420	3.0585423e-11
13	0x2d558619	1.2137424e-11
14	0xada24ecf	-1.8452266e-11
15	0xac6e11fe	-3.3831822e-12
16	0x2d4a6cb2	1.1506506e-11
17	0x2df495dd	2.7806141e-11
18	0xad0321c2	-7.453984e-12
19	0xad4f47df	-1.1782546e-11
20	0xadb71ed8	-2.0818389e-11
21	0xadb968d2	-2.1078615e-11
22	0xac3ecafd	-2.7113305e-12
23	0x2c8157e6	3.676159e-12
24	0x2d6c6cdf	1.3439221e-11
25	0x2df6985a	2.803462e-11
26	0x2a5dcbc0	1.9699433e-13
27	0xad29812b	-9.635219e-12
28	0x2dbd9210	2.1551677e-11
29	0xadc380e9	-2.2226181e-11
30	0x2c8cab2d	3.9980436e-12
31	0x2d8b1ca4	1.581519e-11
32	0xadfd2b69	-2.8782048e-11
33	0xae17fe5d	-3.4559345e-11
34	0xae21226e	-3.663774e-11
35	0xade9427f	-2.6518563e-11
36	0x2ccea74b	5.8734454e-12
37	0x2e2deccb	3.954596e-11
38	0x2d8a2fff	1.5710098e-11
39	0xad47141b	-1.1316305e-11
40	0xac9d1b49	-4.4652376e-12
41	0xacc85330	-5.6935776e-12
42	0x2c939be1	4.1952973e-12
43	0x2d0dcd73	8.060541e-12
44	0xad8a2ed5	-1.5709581e-11
45	0x2e07792f	3.080308e-11
46	0xad4dc8d2	-1.1697492e-11
47	0x2de49c38	2.5989974e-11
48	0x2cad15cf	4.919377e-12
49	0xabf43cc9	-1.7354114e-12
50	0xad668f4e	-1.3105806e-11
51	0x2dfcf9bf	2.8759993e-11
52	0xacb784ed	-5.2159306e-12
53	0xac9f7dac	-4.533004e-12
54	0xadb23f2c	-2.0264311e-11
55	0xacfab240	-7.125217e-12
56	0xad6e3389	-1.3540177e-11
57	0x2e54775a	4.8309225e-11
58	0xacfbf295	-7.160781e-12
59	0xac3154f3	-2.520037e-12
60	0x2d0fb188	8.168029e-12
61	0x2d3f8510	1.0886639e-11
62	0x2e0230c7	2.96019e-11
63	0xaed7bd04	-9.810644e-11

exp_avg_sq f4 [64]
0	0x1e45deb8	1.047515e-20
1	0x1d840f7c	3.495612e-21
2	0x1e9abe66	1.6384131e-20
3	0x1f00a6d6	2.7243058e-20
4	0x20b96b65	3.1411287e-19
5	0x1e1f2e41	8.426955e-21
6	0x1d58f847	2.8715718e-21
7	0x1e584591	1.1449331e-20
8	0x1dd706f0	5.69172e-21
9	0x1f34b429	3.8265508e-20
10	0x1f6e2382	5.0427832e-20
11	0x1f0440b5	2.8005612e-20
12	0x1fadcfbb	7.361201e-20
13	0x1ec59c62	2.0922865e-20
14	0x1eb25e32	1.8885441e-20
15	0x1c982e1f	1.0070438e-21
16	0x1d48e3c4	2.6587532e-21
17	0x1fee602d	1.0095603e-19
18	0x1f5199fb	4.438484e-20
19	0x1e150b9d	7.890396e-21
20	0x204d2b2e	1.7378462e-19
21	0x1f406439	4.0740484e-20
22	0x1d6e9fb7	3.1581608e-21
23	0x1da8ed74	4.471475e-21
24	0x1db3bc1b	4.75754e-21
25	0x1fe729d8	9.790153e-20
26	0x1eb7af43	1.9448365e-20
27	0x1d4ee8e6	2.7384279e-21
28	0x1ec75d7a	2.1108606e-20
29	0x1f93f00d	6.265405e-20
30	0x1ec182b7	2.0488732e-20
31	0x2010ebb0	1.2275257e-19
32	0x1f409819	4.0783394e-20
33	0x2165d7a5	7.787362e-19
34	0x1ed8a89f	2.293963e-20
35	0x1efc5617	2.6717144e-20
36	0x1debf5cf	6.2458142e-21
37	0x1f8393d8	5.5725245e-20
38	0x1eca2570	2.1403066e-20
39	0x1f6ad16d	4.972466e-20
40	0x1f72e78b	5.143702e-20
41	0x1dc0359d	5.087741e-21
42	0x1e599612	1.1518918e-20
43	0x1fda79a1	9.252781e-20
44	0x1feb206b	9.958e-20
45	0x1f267a8e	3.5253242e-20
46	0x1edf15d2	2.3620068e-20
47	0x1f468f61	4.204673e-20
48	0x1f9ad14c	6.556779e-20
49	0x1e323380	9.4338915e-21
50	0x1f1e3fe3	3.3510647e-20
51	0x1f9e7ed5	6.712543e-20
52	0x1e3fb797	1.0149421e-20
53	0x1d809eff	3.4045716e-21
54	0x1f91383e	6.1502934e-20
55	0x1e977fb6	1.6040567e-20
56	0x1dc01c43	5.08512e-21
57	0x1f00dbd2	2.7286885e-20
58	0x1e7d7944	1.3418786e-20
59	0x1d2fa8c5	2.3248309e-21
60	0x1f48790b	4.2451772e-20
61	0x1f258498	3.5049788e-20
62	0x1e1d440f	8.325585e-21
63	0x1ebda862	2.0080795e-20

exp_avg f4 [64]
0	0xb9b57402	-0.00034609443
1	0xb951ef5e	-0.00020020964
2	0xb9c522bd	-0.0003760065
3	0xb82df478	-4.1474093e-05
4	0x3a09a8bf	0.00052512804
5	0xb945159a	-0.00018795431
6	0x38ea4d0e	0.00011172342
7	0x3a4897aa	0.0007651994
8	0xb9422273	-0.00018514115
9	0xba9fc65b	-0.0012189852
10	0xba766391	-0.0009398992
11	0x3ab3f07b	0.0013728285
12	0xbac4ca36	-0.0015013877
13	0x39dcd9b0	0.0004212386
14	0x39d99351	0.00041499225
15	0x390c797d	0.00013396698
16	0x38cc1ce1	9.732857e-05
17	0x3a49c5f8	0.0007697041
18	0xba319288	-0.0006773849
19	0x388d6fc9	6.7442255e-05
20	0x3a2002b6	0.00061039196
21	0x38dc0246	0.00010490841
22	0xba311828	-0.0006755614
23	0xb9a37e7a	-0.00031184015
24	0xb965e984	-0.00021926133
25	0x398f5dc2	0.0002734494
26	0xb96c9236	-0.00022561182
27	0x39553402	0.00020332637
28	0x3a425136	0.0007412614
29	0x38fbe55f	0.000120113364
30	0x38ec5eb0	0.00011270994
31	0xba64f86f	-0.0008734529
32	0x39a9161e	0.0003225067
33	0xbb6aa888	-0.003580602
34	0x3911b5b6	0.0001389597
35	0xb90a5674	-0.00013192912
36	0x3a13a132	0.0005631625
37	0xb9debaec	-0.00042482407
38	0x3a1bb0f5	0.00059391494
39	0xb71e62c0	-9.440526e-06
40	0x3a21be44	0.00061700144
41	0xb924fd0e	-0.00015734529
42	0x38a54cc8	7.882115e-05
43	0x3a3eef0a	0.00072835444
44	0xb84760bc	-4.7535388e-05
45	0xbaeb3c96	-0.0017947133
46	0x3a0a7846	0.00052822044
47	0x398afe0c	0.0002651069
48	0x39d960da	0.00041461625
49	0xb97238cd	-0.00023100078
50	0x3a2d5518	0.0006612106
51	0x3a738661	0.00092897384
52	0xba34903c	-0.00068879477
53	0x398713e1	0.00025764017
54	0x3980d2d9	0.00024571156
55	0x39d5331f	0.00040664614
56	0xb88d6e6f	-6.743974e-05
57	0xba5874a9	-0.000825713
58	0xb901c28b	-0.00012374872
59	0xb8fd4788	-0.00012077304
60	0x39c16a20	0.00036890898
61	0xb9bb61dc	-0.0003574033
62	0xb9579740	-0.00020560343
63	0x38ede25a	0.00011343202

exp_avg_sq f4 [64]
0	0x371a120d	9.183318e-06
1	0x36c261ef	5.7930515e-06
2	0x36c17f66	5.7666794e-06
3	0x37525c4b	1.2538464e-05
4	0x37b36043	2.1383288e-05
5	0x36fcc113	7.532662e-06
6	0x368a8440	4.1281164e-06
7	0x37305c5e	1.0511923e-05
8	0x37040fcc	7.871491e-06
9	0x37ce8ada	2.4621771e-05
10	0x37caaceb	2.4160798e-05
11	0x375ccf93	1.31613515e-05
12	0x37d24039	2.5063857e-05
13	0x37468408	1.1832461e-05
14	0x370c851c	8.375642e-06
15	0x368d1a3e	4.2051824e-06
16	0x36579c24	3.2128382e-06
17	0x37c8cb20	2.3936445e-05
18	0x373f9775	1.1419751e-05
19	0x36cc26ba	6.084182e-06
20	0x37066cda	8.012366e-06
21	0x36d8868d	6.4529654e-06
22	0x36dcafd1	6.5769786e-06
23	0x3703a5b8	7.846793e-06
24	0x362bc8ac	2.5597792e-06
25	0x3765a0a1	1.3686863e-05
26	0x368f7776	4.275639e-06
27	0x36afe8e1	5.242517e-06
28	0x379603a8	1.7883096e-05
29	0x37119c0a	8.679004e-06
30	0x3706c873	8.033693e-06
31	0x380d236c	3.365001e-05
32	0x386974a3	5.5660155e-05
33	0x388d80ab	6.74737e-05
34	0x36d6a6c2	6.39711e-06
35	0x37379730	1.0942851e-05
36	0x373fd676	1.143442e-05
37	0x3761c18c	1.3456109e-05
38	0x36e9ba5f	6.9656376e-06
39	0x379076ef	1.722152e-05
40	0x3748f952	1.1978978e-05
41	0x36892488	4.087171e-06
42	0x36aebbdd	5.2074743e-06
43	0x381a22df	3.6748937e-05
44	0x3784ca50	1.5829835e-05
45	0x37a272c4	1.9365347e-05
46	0x36951328	4.442776e-06
47	0x37952504	1.777942e-05
48	0x36df31f5	6.6517337e-06
49	0x364bab32	3.0349006e-06
50	0x37a9010f	2.0146863e-05
51	0x37804a95	1.5293519e-05
52	0x36902c8a	4.2967195e-06
53	0x369bed5c	4.6469922e-06
54	0x3783f3b7	1.5729905e-05
55	0x36d2828f	6.2736867e-06
56	0x36f2a338	7.231163e-06
57	0x37726c7b	1.4449582e-05
58	0x3688d74a	4.078179e-06
59	0x36e109ba	6.706655e-06
60	0x36a40583	4.8882225e-06
61	0x36b06735	5.2572236e-06
62	0x369903f8	4.5602173e-06
63	0x36a5114c	4.919397e-06

exp_avg f4 [64]
0	0xb9baa7bd	-0.0003560166
1	0xb8e84ee6	-0.00011077318
2	0x3916c2c2	0.00014377668
3	0xb91890d1	-0.00014549798
4	0x38d9702d	0.00010368261
5	0x3928b4e4	0.00016089116
6	0x38b5c2c0	8.6670276e-05
7	0x398fe0bd	0.00027442529
8	0xb8c105fb	-9.204071e-05
9	0xb8bce0e8	-9.0064306e-05
10	0xb9b6eb4f	-0.00034889064
11	0x3a1b76f8	0.00059305085
12	0xb9a36704	-0.00031166535
13	0x38890f7a	6.535552e-05
14	0x398569b5	0.00025446495
15	0x3909a1fe	0.00013125685
16	0x3890b474	6.900067e-05
17	0x39ba2966	0.0003550753
18	0xb9c4e469	-0.00037554212
19	0x3955065c	0.00020315632
20	0x39d0a648	0.0003979674
21	0xb9dccea6	-0.00042115635
22	0xb98b9853	-0.00026625636
23	0xb8dd17e0	-0.00010542548
24	0x37a178ec	1.9249004e-05
25	0xb9f999b7	-0.00047607507
26	0x38e46f26	0.0001089259
27	0x395c2be9	0.00020997193
28	0x3a3b07fb	0.0007134673
29	0xb65de060	-3.306217e-06
30	0x397eb354	0.00024290133
31	0x3981c459	0.00024751088
32	0xb9e64bf2	-0.00043925602
33	0x391109b1	0.00013831888
34	0xb981040d	-0.00024607815
35	0xb9b70af6	-0.00034912647
36	0x39a6c651	0.00031809745
37	0xb9863981	-0.00025601315
38	0x3a31e538	0.00067861704
39	0xb8b3041e	-8.536152e-05
40	0x39f0c0fb	0.0004592015
41	0x3815312a	3.5570156e-05
42	0x3a044b15	0.00050465885
43	0xb98d3f9f	-0.00026941017
44	0xb9ee01ff	-0.00045396385
45	0xba1849f4	-0.000580936
46	0x3a14b303	0.0005672427
47	0xba987228	-0.0011630701
48	0x39e9fe8c	0.00044630875
49	0xb99f7a8c	-0.00030418148
50	0x380ec1b0	3.4035824e-05
51	0x389bb094	7.423866e-05
52	0x3955bfaf	0.0002038467
53	0x3964e401	0.00021828712
54	0xb9ae4374	-0.00033238123
55	0x3913cd25	0.00014095435
56	0xb849947b	-4.8060418e-05
57	0xb8c98578	-9.6092874e-05
58	0x37831e8b	1.563064e-05
59	0xb71588fe	-8.912988e-06
60	0x3a2555a4	0.0006307012
61	0xb94fc218	-0.00019813364
62	0x39b76ef1	0.00034987138
63	0x3908c14a	0.00013041976

exp_avg_sq f4 [64]
0	0x36f579b8	7.315739e-06
1	0x3658aaab	3.228585e-06
2	0x363e5031	2.8358884e-06
3	0x3655a674	3.1836362e-06
4	0x374438c7	1.169573e-05
5	0x366c4a2b	3.5209912e-06
6	0x36225ebd	2.4195026e-06
7	0x36db913a	6.543615e-06
8	0x3691b587	4.3424693e-06
9	0x367a780c	3.732278e-06
10	0x371cf9a3	9.356448e-06
11	0x36e4f4fc	6.8234494e-06
12	0x370823aa	8.114535e-06
13	0x3720e6cb	9.590479e-06
14	0x370d66c9	8.428186e-06
15	0x35f477b3	1.8214254e-06
16	0x3605303e	1.9846625e-06
17	0x37ae3cfb	2.0770813e-05
18	0x36d4b530	6.3391853e-06
19	0x36d43af0	6.3249536e-06
20	0x36cd11d6	6.1115525e-06
21	0x36c08607	5.7376487e-06
22	0x368b95c7	4.159959e-06
23	0x369ed8cd	4.734006e-06
24	0x36233c1e	2.4323886e-06
25	0x370b4e08	8.303214e-06
26	0x36f696c6	7.3489236e-06
27	0x36737b64	3.6281644e-06
28	0x3713a412	8.800083e-06
29	0x365d72c9	3.299838e-06
30	0x36dbd585	6.5515655e-06
31	0x36c57771	5.8849623e-06
32	0x36a30b1f	4.859073e-06
33	0x3680eb46	3.8420867e-06
34	0x36931541	4.3834157e-06
35	0x3693ae68	4.401245e-06
36	0x36927bd2	4.3655537e-06
37	0x36e779de	6.8985237e-06
38	0x36d6efc8	6.405611e-06
39	0x3701d139	7.737713e-06
40	0x36f1fe6d	7.2119788e-06
41	0x36277257	2.4951494e-06
42	0x3686bd73	4.015566e-06
43	0x3682e1fd	3.9006104e-06
44	0x378becce	1.6680362e-05
45	0x36c0b12d	5.742672e-06
46	0x369a24a9	4.5938255e-06
47	0x373d30f7	1.1276678e-05
48	0x36c00ff0	5.7239013e-06
49	0x36c8bf89	5.982762e-06
50	0x36968495	4.485783e-06
51	0x37215c0d	9.61778e-06
52	0x36885d6d	4.063992e-06
53	0x3681fb97	3.8737885e-06
54	0x370e0db3	8.467049e-06
55	0x369bbed2	4.6415744e-06
56	0x36a6acc5	4.9672985e-06
57	0x36d1a847	6.2482754e-06
58	0x368b2057	4.1462877e-06
59	0x353b2b93	6.972634e-07
60	0x36db0a77	6.527927e-06
61	0x36d484f6	6.333571e-06
62	0x367eded4	3.7978652e-06
63	0x36d85c0d	6.4480178e-06

exp_avg f4 [128, 64]
0	0xb6b145ff	-5.2831597e-06
1	0x35ed7364	1.7691459e-06
2	0xb6b4d24c	-5.3889e-06
3	0x36b92a39	5.518345e-06
4	0x35f40af2	1.8182602e-06
5	0xb70af989	-8.28354e-06
6	0xb58b32e5	-1.0371119e-06
7	0x36492a02	2.9975786e-06
8	0x36a9cc2a	5.0603603e-06
9	0xb7a605a4	-1.9791369e-05
10	0x37503c65	1.2411828e-05
11	0x36bcc326	5.625555e-06
12	0x37927a0f	1.7461394e-05
13	0xb74064ee	-1.1467591e-05
14	0x3448d591	1.8704146e-07
15	0xb4c9ad3f	-3.756522e-07
16	0xb5ae4977	-1.2985391e-06
17	0xb79132f0	-1.7309067e-05
18	0xb76379c2	-1.3558603e-05
19	0x3596803d	1.1213193e-06
20	0xb7190114	-9.119762e-06
21	0xb6e0a2e9	-6.6946855e-06
22	0xb68f23c4	-4.2658958e-06
23	0xb6f77201	-7.3744454e-06
24	0x368e63c5	4.2435445e-06
25	0x378f41bf	1.7077544e-05
26	0x3622d115	2.4261583e-06
27	0x366084fa	3.3456004e-06
28	0xb660385d	-3.3411409e-06
29	0x35a12890	1.200724e-06
30	0x363c952c	2.8101013e-06
31	0x37354e0c	1.0806612e-05
32	0xb2c1dd00	-2.2568656e-08
33	0xb76bc970	-1.4053992e-05
34	0x37089878	8.141731e-06
35	0xb47aadd8	-2.3346308e-07
36	0xb4651698	-2.1335507e-07
37	0x378b2710	1.6588281e-05
38	0xb5a346c6	-1.2165044e-06
39	0x3758ff34	1.2934022e-05
40	0xb6971e5d	-4.5036854e-06
41	0xb5d1f71a	-1.564363e-06
42	0x371438c6	8.834706e-06
43	0x36b63669	5.430357e-06
44	0x372b56e1	1.0212622e-05
45	0x377531aa	1.4614701e-05
46	0xb618dae4	-2.2777176e-06
47	0x372216a7	9.661227e-06
48	0xb6a22ae2	-4.8329684e-06
49	0x362d0dd4	2.5787058e-06
50	0x373d54b3	1.1284998e-05
51	0xb4765c10	-2.2944027e-07
52	0xb6da4d12	-6.5058784e-06
53	0x360f4094	2.134625e-06
54	0x37241153	9.779195e-06
55	0xb669b77a	-3.4826503e-06
56	0x35bf1b76	1.4238601e-06
57	0x3696da2c	4.495747e-06
58	0x35ec20aa	1.7592877e-06
59	0x351c2e1e	5.818164e-07
60	0x368344cf	3.9121146e-06
61	0xb5e28908	-1.6878193e-06
62	0xb714bcf1	-8.865479e-06
63	0xb5ca48be	-1.5071344e-06
64	0xb6aa87b7	-5.082194e-06
65	0x36691e0e	3.47372e-06
66	0xb754b719	-1.2678815e-05
67	0xb76699d4	-1.3744884e-05
68	0xb6a27e63	-4.8426896e-06
69	0xb700db76	-7.680492e-06
70	0x36a11e9f	4.8017387e-06
71	0x34c6f0c4	3.7055554e-07
72	0x36ad61e5	5.167198e-06
73	0xb7526e2c	-1.2542627e-05
74	0x3796e020	1.798576e-05
75	0xb6814652	-3.852686e-06
76	0x378d89af	1.6872624e-05
77	0xb7904843	-1.7199787e-05
78	0xb50ecee0	-5.3200165e-07
79	0x36432db8	2.9083876e-06
80	0x368e88af	4.247842e-06
81	0x36f85844	7.4012514e-06
82	0xb7637626	-1.3557763e-05
83	0x36bb88f9	5.58898e-06
84	0xb4ccb00a	-3.8126046e-07
85	0xb5ac438c	-1.2834657e-06
86	0x32363790	1.0606428e-08
87	0xb6fd0fa5	-7.541809e-06
88	0x36c520cd	5.874876e-06
89	0x37a7be6a	1.999662e-05
90	0x3720b63e	9.579175e-06
91	0x366ff203	3.5754645e-06
92	0x35b7732c	1.3668082e-06
93	0xb6de7c81	-6.6306097e-06
94	0x36cff3db	6.1974692e-06
95	0xb72fd7bb	-1.04810415e-05
96	0xb73b5102	-1.116493e-05
97	0xb7919380	-1.7354032e-05
98	0xb7040d37	-7.87089e-06
99	0x3758dfeb	1.2926738e-05
100	0xb68896b7	-4.0706614e-06
101	0xb69a8252	-4.604729e-06
102	0xb7258bf9	-9.867356e-06
103	0xb6fe5594	-7.5797525e-06
104	0x361a98ab	2.3036653e-06
105	0xb599a8fa	-1.1448567e-06
106	0xb67abd6a	-3.7363156e-06
107	0xb729cc06	-1.0120688e-05
108	0x378bc789	1.6663007e-05
109	0x3780bc82	1.534657e-05
110	0x36cf77e1	6.1830365e-06
111	0xb679b852	-3.721118e-06
112	0x36e6579f	6.8647346e-06
113	0x3723f824	9.773332e-06
114	0xb518d8e8	-5.694005e-07
115	0xb6df2dd5	-6.6512534e-06
116	0xb706ffda	-8.0465925e-06
117	0xb601a4f6	-1.9318518e-06
118	0x36547e1d	3.166387e-06
119	0x33c14614	9.00001e-08
120	0x368e0824	4.2328775e-06
121	0x37367151	1.0874429e-05
122	0x36a30f7a	4.8595803e-06
123	0xb6a024fb	-4.7726767e-06
124	0x37639c7d	1.356669e-05
125	0x35c15e42	1.4407053e-06
126	0xb720af68	-9.577583e-06
127	0xb71fece1	-9.532291e-06
128	0xb7e17ee4	-2.6881178e-05
129	0xb7856976	-1.5903945e-05
130	0x379ba53a	1.855438e-05
131	0x37a5b983	1.9755918e-05
132	0x388710d9	6.44044e-05
133	0x378a6c58	1.6501333e-05
134	0xb6c2e784	-5.8086025e-06
135	0x382b2755	4.0806208e-05
136	0x374b6b1e	1.2124683e-05
137	0x37c1ab64	2.3087203e-05
138	0x371a3eb0	9.193711e-06
139	0x388dfebb	6.770851e-05
140	0x38506085	4.9680955e-05
141	0xb813db97	-3.525204e-05
142	0x3865bffd	5.4776658e-05
143	0xb686bee0	-4.015732e-06
144	0xb75bddc5	-1.3105052e-05
145	0x37bbd534	2.2391418e-05
146	0xb8bbbf78	-8.952519e-05
147	0xb7561b1e	-1.2761708e-05
148	0xb8802a6c	-6.111417e-05
149	0x35c91680	1.4982215e-06
150	0x377b937f	1.4995107e-05
151	0xb86475a5	-5.4469e-05
152	0xb69fcfdf	-4.7627686e-06
153	0x37f33a71	2.8995071e-05
154	0xb7d5cddc	-2.548744e-05
155	0xb5d20ab0	-1.564933e-06
156	0xb7c15480	-2.3046741e-05
157	0xb6ef8a60	-7.138864e-06
158	0xb7592038	-1.2941709e-05
159	0x3284b000	1.5446858e-08
160	0x36f8c3d0	7.4137715e-06
161	0x374b53e1	1.21192725e-05
162	0x37bf07e6	2.2772652e-05
163	0xb7b75adc	-2.185761e-05
164	0x380d2f46	3.3661046e-05
165	0x384f468c	4.9418348e-05
166	0x3663af60	3.3927718e-06
167	0x3849a77c	4.8078116e-05
168	0xb7418d1e	-1.1536553e-05
169	0xb69f21bc	-4.7424965e-06
170	0x37e93f3d	2.7805212e-05
171	0xb79c9ab1	-1.8668683e-05
172	0x37c86058	2.3886721e-05
173	0x38d31bc1	0.000100664336
174	0x3880829b	6.127843e-05
175	0x35396140	6.905939e-07
176	0x369e8d08	4.725185e-06
177	0xb72e89a8	-1.0403259e-05
178	0x37a2f93e	1.9427967e-05
179	0xb86a7f58	-5.5908546e-05
180	0x37a98d9c	2.0212312e-05
181	0xb668c311	-3.4684238e-06
182	0x38d3b013	0.000100940604
183	0x373b34da	1.1158374e-05
184	0x35408d88	7.173153e-07
185	0x388384cb	6.2713014e-05
186	0x3739c436	1.1072543e-05
187	0x36553b1c	3.177388e-06
188	0xb79b331f	-1.8501245e-05
189	0xb75b21e8	-1.3061312e-05
190	0x37ae02bd	2.0743691e-05
191	0xb8248a16	-3.922925e-05
192	0x38215d58	3.8472324e-05
193	0xb796edf2	-1.7992195e-05
194	0xb70bad65	-8.325417e-06
195	0xb8aafb54	-8.153045e-05
196	0xb84c6b75	-4.8737467e-05
197	0x38084c8a	3.249621e-05
198	0x3753ff56	1.263603e-05
199	0xb86bea72	-5.624671e-05
200	0x370d9718	8.439434e-06
201	0x38da8a6c	0.00010420833
202	0x395ef557	0.00021262966
203	0xb89e2506	-7.540923e-05
204	0xb7ed99e6	-2.8324266e-05
205	0x38929dff	6.9912516e-05
206	0xb7ad5a29	-2.0665191e-05
207	0xb653a796	-3.1538998e-06
208	0x37980248	1.8120874e-05
209	0x38409311	4.5913333e-05
210	0x3877980e	5.9031e-05
211	0x37cdbd61	2.452609e-05
212	0x386cd4d6	5.6465004e-05
213	0x38ae916c	8.3240535e-05
214	0x38138912	3.5175188e-05
215	0x38400b84	4.5787092e-05
216	0x37d457bf	2.531323e-05
217	0xb56e9480	-8.8878005e-07
218	0x37a2ee23	1.9422796e-05
219	0xb8349098	-4.3050008e-05
220	0x382e3e1c	4.1542677e-05
221	0x37f384e6	2.9029743e-05
222	0x38749842	5.8315934e-05
223	0xb8c087b9	-9.180554e-05
224	0xb879f5e4	-5.959523e-05
225	0xb799f01a	-1.8350827e-05
226	0xb8db715f	-0.00010463851
227	0x3878cfee	5.9321457e-05
228	0xb8264a1d	-3.9646508e-05
229	0x374b4828	1.2116543e-05
230	0xb7905817	-1.7207158e-05
231	0xb8c5695c	-9.413317e-05
232	0x38272a48	3.985528e-05
233	0x37c4a941	2.3443836e-05
234	0xb8510614	-4.9835144e-05
235	0x38411baa	4.604055e-05
236	0x385c7b34	5.256683e-05
237	0xb8de727c	-0.00010607109
238	0xb8975200	-7.215515e-05
239	0x38ee7b1c	0.00011371655
240	0x37d6219c	2.5526439e-05
241	0xb8207463	-3.8255366e-05
242	0xb9335387	-0.00017101887
243	0x3923b91c	0.0001561385
244	0xb7a7531d	-1.9946654e-05
245	0xb74c2cfa	-1.21698195e-05
246	0xb914ab3f	-0.00014178174
247	0x382ff756	4.19536e-05
248	0xb616b866	-2.2459076e-06
249	0xb83af66e	-4.457536e-05
250	0xb6bbb67c	-5.5942783e-06
251	0xb6f4cf20	-7.295879e-06
252	0x382a096c	4.0539933e-05
253	0x37f47b63	2.9144523e-05
254	0xb5f7ded0	-1.8467781e-06
255	0xb8085198	-3.2500917e-05

exp_avg_sq f4 [128, 64]
0	0x305752ae	7.833404e-10
1	0x2f612d8d	2.0479814e-10
2	0x30194ed4	5.57731e-10
3	0x30ddcee9	1.6138674e-09
4	0x3106e8ff	1.963201e-09
5	0x30843066	9.61802e-10
6	0x2fec832d	4.3021356e-10
7	0x305057d1	7.5794754e-10
8	0x2f8eaa28	2.5950553e-10
9	0x31830cb5	3.8140464e-09
10	0x30ff4a6a	1.8574842e-09
11	0x30b17d04	1.2913977e-09
12	0x310234ee	1.8947577e-09
13	0x30da8591	1.589955e-09
14	0x3057b9c2	7.848052e-10
15	0x2e6f8ea6	5.4469006e-11
16	0x30116be0	5.290399e-10
17	0x31ec6948	6.880473e-09
18	0x30f1661d	1.756408e-09
19	0x2f1a0662	1.4008486e-10
20	0x30ea9a48	1.706959e-09
21	0x30d0469b	1.5154059e-09
22	0x2fb4f98f	3.291913e-10
23	0x30355165	6.5963085e-10
24	0x2f2c24ae	1.565634e-10
25	0x311e9574	2.307698e-09
26	0x2fb1a374	3.2312253e-10
27	0x2f809735	2.3390503e-10
28	0x30142768	5.3898086e-10
29	0x310a5947	2.0132391e-09
30	0x2f120ea0	1.3283818e-10
31	0x3166495b	3.3511103e-09
32	0x314ace68	2.9512197e-09
33	0x30f47ea8	1.7789334e-09
34	0x30ba8ffe	1.3574206e-09
35	0x31021f93	1.8935438e-09
36	0x301c94a1	5.6963684e-10
37	0x3119bba2	2.2371087e-09
38	0x30b91dc1	1.3468978e-09
39	0x31060417	1.9501891e-09
40	0x30c70876	1.448156e-09
41	0x2f6442bb	2.0760187e-10
42	0x300acaeb	5.049247e-10
43	0x319855be	4.43353e-09
44	0x319558d0	4.3465676e-09
45	0x310cb561	2.0475783e-09
46	0x3108fadd	1.9933204e-09
47	0x313858a4	2.682591e-09
48	0x30816886	9.415693e-10
49	0x30283837	6.119793e-10
50	0x311701ce	2.1974418e-09
51	0x313fbc9e	2.7901375e-09
52	0x2fc128cf	3.5135492e-10
53	0x2fcb1344	3.6939174e-10
54	0x310a3bce	2.0115638e-09
55	0x308424b6	9.614698e-10
56	0x2e9c159f	7.0978994e-11
57	0x30d00345	1.5134921e-09
58	0x2fe88406	4.2294362e-10
59	0x2f48cb2e	1.8262078e-10
60	0x307decae	9.2377206e-10
61	0x3105dd07	1.9479687e-09
62	0x30338e6d	6.532222e-10
63	0x303fd515	6.9788203e-10
64	0x32a9a3d1	1.9748684e-08
65	0x32281819	9.784366e-09
66	0x32b0d067	2.0583867e-08
67	0x32845331	1.5404654e-08
68	0x3228ba7e	9.8212904e-09
69	0x328ae775	1.6170569e-08
70	0x323ba24b	1.0921734e-08
71	0x32942ed8	1.725077e-08
72	0x306657de	8.379838e-10
73	0x33838e2b	6.126023e-08
74	0x323d3cd1	1.1015076e-08
75	0x3320dcb0	3.7453617e-08
76	0x32420a9c	1.12946985e-08
77	0x3351a489	4.881125e-08
78	0x32928385	1.7056445e-08
79	0x31669407	3.3553549e-09
80	0x324ceb63	1.1927884e-08
81	0x338d2465	6.572444e-08
82	0x32d24b91	2.4481581e-08
83	0x32a2190b	1.887067e-08
84	0x32ca2292	2.3531616e-08
85	0x3352dcd4	4.9095277e-08
86	0x30919e37	1.0595106e-09
87	0x328fa973	1.6724448e-08
88	0x32571f12	1.2521712e-08
89	0x3249093f	1.1701842e-08
90	0x32f2ae78	2.8251847e-08
91	0x32557c55	1.2426502e-08
92	0x3308d238	3.185616e-08
93	0x33b64d09	8.489048e-08
94	0x3284620e	1.5411413e-08
95	0x32d334c3	2.4587626e-08
96	0x335cc89c	5.1405195e-08
97	0x32d50a8a	2.4801256e-08
98	0x3240e51a	1.1227963e-08
99	0x331e8691	3.690963e-08
100	0x32a97bda	1.973051e-08
101	0x32959fa3	1.7418477e-08
102	0x333aa496	4.345619e-08
103	0x321b8760	9.052968e-09
104	0x32bfa6dd	2.2311207e-08
105	0x31b7ad23	5.3456843e-09
106	0x31fc5c21	7.344639e-09
107	0x329855f5	1.7734218e-08
108	0x32ba7f0c	2.1711024e-08
109	0x320eb0a9	8.305656e-09
110	0x329f4bc7	1.8544496e-08
111	0x324cc56d	1.1919252e-08
112	0x3294f091	1.7338865e-08
113	0x32bd68bc	2.2050124e-08
114	0x326a75a6	1.3647343e-08
115	0x33a6d9e2	7.76961e-08
116	0x32578489	1.2544782e-08
117	0x30d08e37	1.5174412e-09
118	0x31f78eca	7.2048794e-09
119	0x32b4a7b1	2.1031015e-08
120	0x3209e2b7	8.0259985e-09
121	0x3254a623	1.2377799e-08
122	0x328eaa20	1.660834e-08
123	0x31013e09	1.8807234e-09
124	0x32be6c93	2.2168285e-08
125	0x33331835	4.16987e-08
126	0x325d7957	1.28914825e-08
127	0x3289decb	1.6050214e-08
128	0x333f992d	4.4609965e-08
129	0x336fa5be	5.5797265e-08
130	0x33729925	5.64843e-08
131	0x3309384a	3.1948993e-08
132	0x3346e1da	4.630588e-08
133	0x339272be	6.819526e-08
134	0x32e9be87	2.7211412e-08
135	0x3333cc25	4.1862354e-08
136	0x3113285f	2.1414264e-09
137	0x34a32d1b	3.0393934e-07
138	0x32c0a90b	2.2428614e-08
139	0x33d9a31b	1.0134519e-07
140	0x3313397f	3.4278397e-08
141	0x33e1ea2c	1.05199746e-07
142	0x33a05bd7	7.467286e-08
143	0x32614a67	1.3113641e-08
144	0x3320f72b	3.74777e-08
145	0x344f0c5d	1.9282875e-07
146	0x33b6598e	8.491325e-08
147	0x336f1d64	5.5673254e-08
148	0x33cf6490	9.657481e-08
149	0x345e06fa	2.0677899e-07
150	0x32169e59	8.767153e-09
151	0x3324a180	3.833111e-08
152	0x330f50a4	3.3368124e-08
153	0x331e6a23	3.6883772e-08
154	0x3395dd40	6.978598e-08
155	0x33308630	4.1100236e-08
156	0x33a6512b	7.744742e-08
157	0x340fde6b	1.3398828e-07
158	0x3368ab79	5.4172663e-08
159	0x343d4c69	1.7629795e-07
160	0x33e0a998	1.0461662e-07
161	0x33fda4ea	1.1811228e-07
162	0x32e87d99	2.706547e-08
163	0x33e6b34f	1.0742826e-07
164	0x3358549d	5.0368374e-08
165	0x33cbbf5d	9.487733e-08
166	0x339953d1	7.139864e-08
167	0x33b21578	8.292676e-08
168	0x33fee842	1.1870044e-07
169	0x32b81ed1	2.1434433e-08
170	0x32b71505	2.1313562e-08
171	0x33b35ac8	8.35185e-08
172	0x33ae8652	8.126939e-08
173	0x33cb48d4	9.4661715e-08
174	0x3324b409	3.8347967e-08
175	0x33061385	3.121706e-08
176	0x32fda74b	2.9529152e-08
177	0x339bde0f	7.258142e-08
178	0x32f6bcdb	2.872405e-08
179	0x33d1b3bd	9.765015e-08
180	0x331f0418	3.7023796e-08
181	0x313053bc	2.5658968e-09
182	0x339f8bca	7.429442e-08
183	0x3383dbd1	6.140147e-08
184	0x329f3fe8	1.8539097e-08
185	0x33126af0	3.4090533e-08
186	0x332b8d3c	3.9942492e-08
187	0x317cb6e2	3.6774783e-09
188	0x33b5e042	8.4692616e-08
189	0x33c30130	9.080611e-08
190	0x33478918	4.6457984e-08
191	0x33819842	6.034726e-08
192	0x33be1252	8.850897e-08
193	0x32e67802	2.6830097e-08
194	0x33d688a4	9.990006e-08
195	0x34a615bf	3.0935732e-07
196	0x34a1ecd4	3.0160902e-07
197	0x340185d7	1.2062752e-07
198	0x3332d917	4.1641297e-08
199	0x340df4e4	1.3220739e-07
200	0x338356e6	6.1159696e-08
201	0x35193175	5.706891e-07
202	0x348d6d28	2.6342718e-07
203	0x3492a050	2.7311262e-07
204	0x3509d571	5.1347075e-07
205	0x3465ee9a	2.141409e-07
206	0x3431212b	1.6496476e-07
207	0x31c97c0b	5.863972e-09
208	0x334fcbbe	4.8381246e-08
209	0x359fe401	1.1912781e-06
210	0x3484aa22	2.4710704e-07
211	0x33cf2c45	9.647241e-08
212	0x3425399c	1.538778e-07
213	0x348d9b61	2.637635e-07
214	0x331936eb	3.5673036e-08
215	0x3333ff49	4.1908866e-08
216	0x3385cd58	6.230647e-08
217	0x3500cb11	4.7979216e-07
218	0x34127195	1.363863e-07
219	0x3303db9b	3.0700544e-08
220	0x3423f4f5	1.5269673e-07
221	0x34a53b1b	3.077665e-07
222	0x3384fe1b	6.1929505e-08
223	0x351b96fd	5.7961716e-07
224	0x340646d9	1.2505497e-07
225	0x343d53dd	1.7632506e-07
226	0x34b37ed8	3.343364e-07
227	0x342564ea	1.5403535e-07
228	0x33f8df3b	1.1589005e-07
229	0x347756e4	2.3035278e-07
230	0x34556e78	1.9877359e-07
231	0x34a2d7c6	3.0331847e-07
232	0x350314a5	4.8831345e-07
233	0x33ab658e	7.981281e-08
234	0x3429d47f	1.5816657e-07
235	0x34eaeedd	4.3759692e-07
236	0x35036671	4.8950375e-07
237	0x34a3dfb0	3.052387e-07
238	0x34a22fc8	3.0209617e-07
239	0x349f6bc0	2.9694456e-07
240	0x343f953f	1.7842557e-07
241	0x33b8b72b	8.601486e-08
242	0x3512b616	5.465421e-07
243	0x34dc1348	4.0992222e-07
244	0x33c26897	9.052854e-08
245	0x33a05ab9	7.467083e-08
246	0x34ac339c	3.2075047e-07
247	0x346954d0	2.173067e-07
248	0x32dfa329	2.6034813e-08
249	0x34d68e1c	3.9964004e-07
250	0x33addaa7	8.095713e-08
251	0x330cccea	3.278266e-08
252	0x33ded103	1.03756996e-07
253	0x3352dcf1	4.909538e-08
254	0x33dd7ab6	1.03134354e-07
255	0x33479149	4.6465434e-08

exp_avg f4 [128]
0	0x2a5d2e40	1.9644789e-13
1	0xaa66f277	-2.0512226e-13
2	0x2c00f5e2	1.8326386e-12
3	0x2c9236fe	4.155675e-12
4	0x2c0c34d0	1.9924513e-12
5	0xab8a3c30	-9.822195e-13
6	0x2b265a47	5.910033e-13
7	0x2d0350d7	7.464438e-12
8	0x2c3d0f25	2.6866922e-12
9	0x2c22ebfa	2.3152578e-12
10	0xab96bd96	-1.0710762e-12
11	0x2d041e22	7.510022e-12
12	0x2d36a4fd	1.0382137e-11
13	0xad9c21aa	-1.7750097e-11
14	0x2cf11a96	6.8525836e-12
15	0xac52dd61	-2.9965685e-12
16	0x2d092a35	7.79692e-12
17	0xac9e287c	-4.4951248e-12
18	0xacfbb2c8	-7.1536978e-12
19	0xad342b88	-1.0241481e-11
20	0xad20859d	-9.124615e-12
21	0xaca5aba9	-4.70864e-12
22	0xaa92b5a4	-2.6060848e-13
23	0xac59cb04	-3.095025e-12
24	0xab76e2d9	-8.771157e-13
25	0xac523e50	-2.9877385e-12
26	0x2da00ff6	1.8196982e-11
27	0xac357bba	-2.579033e-12
28	0x2b2ee196	6.213028e-13
29	0x2cb2ce8c	5.0819956e-12
30	0xadd42084	-2.411605e-11
31	0xa91f86c0	-3.542197e-14
32	0x2b9e5fe6	1.1253192e-12
33	0xac71c34c	-3.4356571e-12
34	0x2ae6bcf0	4.098731e-13
35	0xad3d2943	-1.0752568e-11
36	0x2acb016e	3.6061036e-13
37	0x2c55eaf0	3.0399537e-12
38	0x2be6bbf8	1.6394655e-12
39	0xad066ce5	-7.641198e-12
40	0xabb82d99	-1.3086642e-12
41	0xad4f05d0	-1.1767878e-11
42	0x2aee1583	4.229222e-13
43	0x2ba340ba	1.1599812e-12
44	0xabcf45da	-1.4727622e-12
45	0xab9e4340	-1.1245241e-12
46	0xac607861	-3.1899138e-12
47	0x2c0593d7	1.8982504e-12
48	0xab9bcc44	-1.1070108e-12
49	0x2e44970f	4.4699407e-11
50	0x2bd61c48	1.5213464e-12
51	0x2bb0a820	1.2552216e-12
52	0xac28a2c2	-2.3964585e-12
53	0x2cb90199	5.2581936e-12
54	0x2d01502c	7.350603e-12
55	0x2b652468	8.1407667e-13
56	0x2cc69e7c	5.6450938e-12
57	0xab69edc3	-8.310819e-13
58	0xa9df42b0	-9.914758e-14
59	0xac4ced7e	-2.9121978e-12
60	0x2b76b2f0	8.764508e-13
61	0xac8c0152	-3.979186e-12
62	0xabbc7c27	-1.3392663e-12
63	0xac3f856d	-2.7216799e-12
64	0x2a862862	2.3831203e-13
65	0xac133317	-2.0918317e-12
66	0xad109684	-8.2188735e-12
67	0x2c54ee57	3.0259317e-12
68	0x2b8f1852	1.0167511e-12
69	0x2b1ff3b9	5.682638e-13
70	0xac777bb4	-3.516948e-12
71	0xaa28d351	-1.4994713e-13
72	0xad03a788	-7.483687e-12
73	0xac0df546	-2.017346e-12
74	0x2d520e74	1.1940327e-11
75	0x28299880	9.414453e-15
76	0xab80fc52	-9.16498e-13
77	0xac95dcfb	-4.2593685e-12
78	0xac0360cc	-1.8669953e-12
79	0xaafb9a0d	-4.469345e-13
80	0x2ad5b81b	3.796415e-13
81	0xaaece1f0	-4.2078797e-13
82	0xacbea7a7	-5.418738e-12
83	0xac7d1ad2	-3.596835e-12
84	0xabc8a857	-1.4257578e-12
85	0xad1a8f43	-8.785697e-12
86	0xad11497f	-8.258615e-12
87	0x29f358f8	1.08068014e-13
88	0xac98535f	-4.329356e-12
89	0xab1f750f	-5.66506e-13
90	0x2c965ab1	4.273325e-12
91	0x2d67cb01	1.3175906e-11
92	0xad0915bb	-7.7923735e-12
93	0x2c0000ed	1.8190408e-12
94	0x2cd55651	6.063407e-12
95	0xaca889ce	-4.7901466e-12
96	0xac3cf0a2	-2.6849985e-12
97	0xab0ab0de	-4.92729e-13
98	0x2d411189	1.0974673e-11
99	0xabeffabb	-1.7051563e-12
100	0x2d0146d3	7.348527e-12
101	0x2c4c5442	2.9036916e-12
102	0xad8d1e9b	-1.6043436e-11
103	0x2b27319a	5.9399154e-13
104	0x2c485db0	2.8473716e-12
105	0x2b11f644	5.185611e-13
106	0xad1062d1	-8.207394e-12
107	0x2c85fdea	3.8082775e-12
108	0x2ae218e3	4.0162933e-13
109	0x2ccf1a2c	5.8861995e-12
110	0x2caae550	4.8571494e-12
111	0x2c23f95f	2.3302122e-12
112	0xad0c76f2	-7.98449e-12
113	0x2d042e0f	7.513558e-12
114	0xab1e8de8	-5.632981e-13
115	0xaced3b1d	-6.742508e-12
116	0x2d6226b2	1.2855205e-11
117	0x2cbccba6	5.365891e-12
118	0xad3c9d65	-1.0721511e-11
119	0x2c030bba	1.862273e-12
120	0x2cdad40b	6.219474e-12
121	0x2cb26e64	5.07132e-12
122	0x2a221e7e	1.439907e-13
123	0xac1b3ff8	-2.2062335e-12
124	0xac02288f	-1.8496626e-12
125	0x2bda2424	1.5499863e-12
126	0xaae25539	-4.02048e-13
127	0xabb9ab5e	-1.3192605e-12

exp_avg_sq f4 [128]
0	0x1983d19d	1.3629745e-23
1	0x1b428fb5	1.6093738e-22
2	0x1c2feb67	5.8206893e-22
3	0x1d538605	2.7994904e-21
4	0x1b989150	2.5240197e-22
5	0x1c0c06b8	4.63308e-22
6	0x1d7d80f1	3.3550932e-21
7	0x1bde3084	3.6758172e-22
8	0x1c2cba96	5.7151183e-22
9	0x1d1667bf	1.990597e-21
10	0x1c5fad92	7.4008845e-22
11	0x1d21307f	2.1333244e-21
12	0x1c4911d9	6.652839e-22
13	0x1d929997	3.8804686e-21
14	0x1d044aee	1.7508792e-21
15	0x1c21a77b	5.3486895e-22
16	0x1d65a87a	3.0394998e-21
17	0x1c22d21c	5.3872864e-22
18	0x1e088311	7.226884e-21
19	0x1cdea56d	1.4733489e-21
20	0x1ceacbbb	1.5537484e-21
21	0x1d206a47	2.1230768e-21
22	0x1d8b423e	3.6861486e-21
23	0x1bb3907c	2.9706437e-22
24	0x19d2227d	2.172742e-23
25	0x1bc7d95e	3.3062259e-22
26	0x1d4002f3	2.5412513e-21
27	0x1d1c8c50	2.0718968e-21
28	0x19c2b43a	2.0131923e-23
29	0x1c964eea	9.946566e-22
30	0x1d8d58c6	3.741418e-21
31	0x1ccbe4d5	1.3492565e-21
32	0x1ab16431	7.336735e-23
33	0x1c6ed206	7.9019043e-22
34	0x1b57210f	1.7795065e-22
35	0x1d838199	3.4809412e-21
36	0x1d1e0c82	2.0917592e-21
37	0x1cf3ab69	1.61247e-21
38	0x1bf293a8	4.0130962e-22
39	0x1cc0ff84	1.2771543e-21
40	0x1c40e3b7	6.3821786e-22
41	0x1d0f6bf2	1.8981699e-21
42	0x1a210871	3.330084e-23
43	0x1bd78f3f	3.5661337e-22
44	0x1c4ae2a0	6.71291e-22
45	0x1bbf6bfe	3.1668088e-22
46	0x1c36b659	6.0454427e-22
47	0x1cffbe9b	1.6923755e-21
48	0x1d0d01d4	1.866214e-21
49	0x1dcbc2c6	5.3935044e-21
50	0x1ccd0cae	1.356904e-21
51	0x1c0cb2eb	4.655336e-22
52	0x1d206119	2.1226022e-21
53	0x1cb274e0	1.1809263e-21
54	0x1d29b10a	2.245849e-21
55	0x1b6579f7	1.8981845e-22
56	0x1c134418	4.872623e-22
57	0x1c13fa2e	4.896157e-22
58	0x1b83346b	2.1706006e-22
59	0x1d4bc0c7	2.696649e-21
60	0x1b7cfa93	2.0925916e-22
61	0x1c0c0f0b	4.6341557e-22
62	0x1ce76170	1.5311485e-21
63	0x1d352a94	2.3977163e-21
64	0x1a192726	3.1671282e-23
65	0x1bc9ab9f	3.3363568e-22
66	0x1d0360cf	1.7387755e-21
67	0x1ca22901	1.073086e-21
68	0x1b829a41	2.160638e-22
69	0x1cbf4039	1.2655921e-21
70	0x1befade1	3.96516e-22
71	0x1ac77a90	8.250248e-23
72	0x1c6778c9	7.65876e-22
73	0x1d8e5b50	3.76815e-21
74	0x1cc66b06	1.3130206e-21
75	0x1ca1deb3	1.0711653e-21
76	0x1c7b7484	8.3199526e-22
77	0x1d2ebdb3	2.312678e-21
78	0x1d4ddbea	2.7245217e-21
79	0x1a98e707	6.323897e-23
80	0x1a902d27	5.962995e-23
81	0x1d8cf9a7	3.7315826e-21
82	0x1d2e5173	2.3070817e-21
83	0x1c24e86c	5.4563446e-22
84	0x1a3a34e9	3.850664e-23
85	0x1c5686f3	7.098108e-22
86	0x1d18d6ff	2.0228183e-21
87	0x1c8bfee1	9.264133e-22
88	0x1ca19f38	1.0695243e-21
89	0x1a821e59	5.381577e-23
90	0x1c64e161	7.5730167e-22
91	0x1d3db4fc	2.5107508e-21
92	0x1c8cb946	9.312315e-22
93	0x1c22ef7b	5.3910825e-22
94	0x1c7fa6f2	8.4588194e-22
95	0x1c3f789d	6.335249e-22
96	0x1c62f569	7.5094313e-22
97	0x1c65db48	7.605316e-22
98	0x1d599ef4	2.8801888e-21
99	0x1eb7b41e	1.9450373e-20
100	0x1d65e1c2	3.0424612e-21
101	0x1cdf51bb	1.4778029e-21
102	0x1d7c33b5	3.3378654e-21
103	0x1c2d7992	5.7398024e-22
104	0x1b7fe3f4	2.1166761e-22
105	0x1de850fe	6.1493633e-21
106	0x1c742b3a	8.0788697e-22
107	0x1daa1026	4.5015322e-21
108	0x1af8e1d0	1.02935216e-22
109	0x1dc41677	5.1903996e-21
110	0x1cbd2b15	1.2518107e-21
111	0x1d478421	2.640574e-21
112	0x1d93acc4	3.908921e-21
113	0x1cb2878b	1.1814089e-21
114	0x1c56533f	7.0914253e-22
115	0x1dc73265	5.272697e-21
116	0x1d52c020	2.7892595e-21
117	0x1b791a0e	2.0605216e-22
118	0x1d02684d	1.7259279e-21
119	0x1be054b4	3.711243e-22
120	0x1cc348e7	1.2922862e-21
121	0x1cc33c19	1.2919552e-21
122	0x1adf8aef	9.24551e-23
123	0x1bb18ba4	2.9372434e-22
124	0x1b142361	1.2253705e-22
125	0x1cc59823	1.3075693e-21
126	0x1979b458	1.29094184e-23
127	0x1d116b66	1.9246114e-21
