data/vae_weights.ckpt (torch, 569127 bytes, 105 tensors)

exp_avg f4 [2, 14]
00000000: 2a5e bdb9 2044 02bb 5e81 3539 af5c 7d3a
00000010: 6bc0 d2b8 af74 a93a 9af9 8bb8 7e4d 743a
00000020: 3c3e 13b7 0168 f539 40cd 9fba c8d8 e8ba
00000030: f7a2 a6b9 a241 feb6 82a3 c939 87bf 1b3b
00000040: e14c 8cb9 5274 8bba f3d5 c838 1101 6dbb
00000050: 7415 da38 70a9 c9ba 4ac4 e5b8 4f53 02ba
00000060: 4712 aabb 7ca6 3e3b fc81 cb39 f4a6 06b7
-0.00036119047 -0.0019877031 0.00017309698 0.0009664995 -0.00010049421 0.0012928451 -6.6745284e-05 0.00093194086
-8.776373e-06 0.0004680753 -0.0012191907 -0.0017764801 -0.00031783406 -7.5774306e-06 0.0003845953 0.0023765282
-0.0002676016 -0.0010639525 9.576594e-05 -0.0036163966 0.00010399046 -0.0015385579 -0.000109561326 -0.00049715204
-0.005190167 0.0029090932 0.00038816023 -8.025894e-06

exp_avg_sq f4 [2, 14]
00000000: cc41 a437 eb39 2339 0927 6e37 348c b837
00000010: d9c6 8037 917c ac39 8f26 9a37 23d0 3738
00000020: 141b 1837 3db8 6137 c1e6 4e3a 0cb5 7239
00000030: f2c9 8237 f0d0 3537 4f4a bc36 72d0 9838
00000040: 3b96 9436 416d 2c37 1a37 7c36 56bf 5539
00000050: f64e 8b36 ce5f 8937 5dc1 ac36 2517 bc36
00000060: d4f9 083a eaa9 0a39 8b06 bf36 7573 ab36
1.9580963e-05 0.00015566467 1.4194994e-05 2.1999796e-05 1.5351385e-05 0.00032899206 1.8376186e-05 4.3824442e-05
9.066211e-06 1.3453941e-05 0.00078926614 0.00023146364 1.5591246e-05 1.0837088e-05 5.6114873e-06 7.286751e-05
4.428233e-06 1.0277437e-05 3.7583e-06 0.00020384541 4.151715e-06 1.6376285e-05 5.14851e-06 5.605531e-06
0.00052252156 0.00013224003 5.6930053e-06 5.109638e-06

exp_avg f4 [64, 27]
00000000: ce20 99b0 bedf c4b3 23fc 5daf 408e 8932
00000010: ce88 0530 67cb 3234 5de2 b12f b10a 1433
00000020: e328 8cb0 9780 de30 db6e b634 43ea 0bb4
00000030: 5829 6ab1 4b23 2caf fca4 2d36 c0fc 01b6
00000040: cbd6 03b7 b9cb 8235 8c2f c4b5 1c82 a5b6
00000050: 83d6 7235 2ad3 3eb5 4821 e0b6 8d6c e035
00000060: b74e b4b6 248e a8b4 d11c ba35 afeb 0d33
00000070: 3cfc 03b6 a406 eeb2 7557 9934 8b82 3832
00000080: fd71 7336 e94d d332 a2ce 3235 12f3 cbb2
00000090: c6ba b4b2 3dfd f936 27c8 3db6 8c37 b4b2
000000a0: bf0c d630 3068 1139 76a0 5fb9 c513 97b9
000000b0: 7516 f838 e0fe 08b9 52dc cab9 5bdd af38
000000c0: af87 bbb8 dc3c 69b9 fb67 3938 e9aa 04ba
000000d0: 609b c4b7 1625 1f38 7fd3 ea34 4242 c537
000000e0: 697d 34b3 2313 88b6 9afe 1bb4 6bd8 33b8
000000f0: 26b2 8ab3 0eed 11b7 d5b1 91b3 ee45 3fb5
00000100: 02a1 b7b8 d447 0b38 68d2 4835 e2b3 a432
00000110: e004 edb8 b5a3 adb8 3d09 05b8 38ed 16b9
00000120: ebbf abb8 a895 8337 19e3 38b9 6f4e b6b8
00000130: bf42 0339 5d86 d7b8 ebb6 8039 e51b 32b9
00000140: 1228 39b9 9cdc 5d34 4a38 0c38 5afc 92b3
00000150: 0449 aab6 b57d 87b4 426a 80b8 89d4 28b4
00000160: 0dde 42b7 7824 70b3 c64d 04b5 7344 03b9
00000170: bb21 4738 21e2 3135 083e 28b2 2f47 f0b9
00000180: 46d1 d137 9c9e bc3a 95be 13ba f5a7 09b9
00000190: 0767 ce3a c0ce 1aba b0d0 18b9 dec5 b73a
000001a0: df3f 87b9 f37c 8fba cb5f 84b9 75ef 27b9
000001b0: f3c3 9534 60cc 9937 2104 8d33 3e4b 5fb6
000001c0: d785 adb3 67a8 0bb8 f2e2 9fb3 1475 e1b6
000001d0: 1253 28b4 fa98 25b5 a8f7 8db8 60e7 d837
000001e0: c2d2 1635 576b 12b2 9a9b 85b9 ab3b 2e39
000001f0: 63f7 e539 8e6b d8b8 4f47 d2b8 dbd0 bf39
00000200: 54f9 c5b8 9750 2ab9 4f84 e139 37ee 96b8
00000210: 00f4 5b37 329e 3cb9 6165 b9b8 07f8 e0b0
00000220: 7a81 e3b3 c600 0b30 12dd 9232 5fc8 8830
00000230: f604 5034 48d4 bf2f 681f 2233 401b 27af
00000240: e6ff 2931 7f7b d434 ab3a 21b4 3ae2 3fb1
00000250: 37d7 f2ac d469 ef35 ef5b a6b5 b747 9db6
00000260: 24ba e135 73a3 4fb5 7142 a9b6 faa4 c735
00000270: 5b53 33b5 e69a 93b6 6cb5 5535 0ecb f6b5
00000280: cfd0 a834 e11d 8d35 5e88 fbaf 7a46 12b3
00000290: de9b 502c 13ba c631 13d1 712f 9e3c 8533
000002a0: 4cb3 022f 5dc9 5732 5b50 8faf 9d3a 3830
000002b0: 4003 0834 3bbd 4fb3 10a2 9cb0 2d33 2eae
000002c0: e742 7635 c682 2ab5 cc08 2fb6 989c a434
000002d0: 3e0f c6b4 529c e4b5 dd5c 7734 2a74 2db4
000002e0: 2fbe 06b6 f030 c134 dd85 e0b5 c2b7 0233
000002f0: 69ef e834 da2b e42d e444 36b2 26f1 f32e
00000300: 8fa2 b130 8936 242f e817 a832 f4a6 652e
00000310: 1b8b 6c31 c5ed d8ae 122a 66ae 6572 2c33
00000320: 3fb8 82b2 169a c9ae 260d 322d b2d6 ab33
00000330: 6573 0534 8140 3d34 4f68 8931 d6f6 7532
00000340: b1f4 2a35 0af0 4ab3 3608 05b3 4f30 5b35
00000350: 7498 8934 4afc 8eb3 768d eab3 d26c 3b34
00000360: ea83 2835 86de 5438 486d 74b4 7f02 0eb7
00000370: 6b50 22b4 5e88 c2b8 bf55 49b4 e542 a1b7
00000380: 0dcf 0c34 932f 9db5 de15 48b9 9868 9638
00000390: 6ab4 d135 0979 0b34 9689 8cb9 40e2 3cb9
000003a0: 7286 0bba 9ed1 01ba 60d9 91b6 a465 a939
000003b0: 20fd 76b9 fd26 0ab9 a455 57b9 6a1b eab7
000003c0: 96e1 ed39 0cf9 c0b9 bd40 d4b9 d2b5 0534
000003d0: 05c0 b036 386a c832 4367 8db5 5281 77b1
000003e0: fc7c 1fb7 9b02 f9b1 e288 0cb6 9436 a432
000003f0: 27f1 51b4 9277 a2b7 5b11 f936 7616 8d34
-1.1141539e-09 -9.16766e-08 -2.018941e-10 1.6013587e-08 4.857953e-10 1.6651539e-07 3.2356953e-10 3.446866e-08
-1.0197961e-09 1.6189173e-09 3.39808e-07 -1.3030608e-07 -3.4074983e-09 -1.5655847e-10 2.5875042e-06 -1.9369618e-06
-7.858219e-06 9.745046e-07 -1.4616976e-06 -4.93253e-06 9.046418e-07 -7.10878e-07 -6.6795947e-06 1.6720893e-06
-5.3735816e-06 -3.139586e-07 1.3866467e-06 3.3043474e-08 -1.966734e-06 -2.7709866e-08 2.8562104e-07 1.0739892e-08
3.6276172e-06 2.4599062e-08 6.661086e-07 -2.3742846e-08 -2.1039693e-08 7.450259e-06 -2.8279699e-06 -2.0980018e-08
1.5574172e-09 0.0001386709 -0.00021326714 -0.00028815694 0.000118297445 -0.00013064919 -0.00038692594 8.385881e-05
-8.942128e-05 -0.00022243283 4.4204276e-05 -0.0005060868 -2.3437373e-05 3.7943093e-05 4.373978e-07 2.3515084e-05
-4.2023576e-08 -4.0553437e-06 -1.4528123e-07 -4.287848e-05 -6.458531e-08 -8.697867e-06 -6.784436e-08 -7.1254806e-07
-8.75611e-05 3.3207078e-05 7.481199e-07 1.9173914e-08 -0.00011301949 -8.279776e-05 -3.1718275e-05 -0.00014393486
-8.189663e-05 1.5686106e-05 -0.00017632208 -8.693046e-05 0.00012517998 -0.00010277026 0.00024550347 -0.00016985794
-0.00017657902 2.0662486e-07 3.3431024e-05 -6.844557e-08 -5.074895e-06 -2.5237173e-07 -6.123308e-05 -1.5723539e-07
-1.1615001e-05 -5.5912523e-08 -4.928701e-07 -0.00012518633 4.747671e-05 6.62667e-07 -9.792991e-09 -0.00045829403
2.5012192e-05 0.0014390531 -0.0005636004 -0.00013127907 0.0015747257 -0.0005905442 -0.00014573592 0.0014020761
-0.00025796794 -0.0010947272 -0.00025248373 -0.00016015566 2.7895985e-07 1.833419e-05 6.566575e-08 -3.3273386e-06
-8.0802856e-08 -3.329702e-05 -7.4452956e-08 -6.719152e-06 -1.567644e-07 -6.16899e-07 -6.7695335e-05 2.5856949e-05
5.618605e-07 -8.522725e-09 -0.0002548367 0.00016616161 0.000438626 -0.00010319716 -0.000100268626 0.00036585968
-9.440133e-05 -0.00016242485 0.00043013922 -7.196928e-05 1.3110228e-05 -0.0001798801 -8.840371e-05 -1.6368639e-09
-1.0594063e-07 5.0569005e-10 1.7097168e-08 9.952251e-10 1.9373314e-07 3.4893533e-10 3.7747128e-08 -1.5198243e-10
2.4738198e-09 3.9577932e-07 -1.5015637e-07 -2.7922753e-09 -6.9019473e-12 1.7837688e-06 -1.239472e-06 -4.6873133e-06
1.681798e-06 -7.735136e-07 -5.0443273e-06 1.487467e-06 -6.6803995e-07 -4.398974e-06 7.9612687e-07 -1.8387525e-06
3.1444367e-07 1.0514015e-06 -4.575353e-10 -3.4057372e-08 2.9645101e-12 5.7837126e-09 2.19931e-10 6.204321e-08
1.188713e-10 1.2560432e-08 -2.6068644e-10 6.7022105e-10 1.266717e-07 -4.8368047e-08 -1.1396555e-09 -3.9608473e-11
9.1739497e-07 -6.3520235e-07 -2.6082153e-06 3.0661317e-07 -3.6891464e-07 -1.7032819e-06 2.3037451e-07 -1.6154141e-07
-2.0078257e-06 3.5984658e-07 -1.672826e-06 3.043511e-08 4.338756e-07 2.5940073e-11 -1.0609458e-08 1.1093197e-10
1.2924647e-09 1.4935088e-10 1.9568645e-08 5.2216856e-11 3.4421592e-09 -9.864779e-11 -5.233331e-11 4.0150912e-08
-1.5217777e-08 -9.167793e-11 1.0121048e-11 8.001861e-08 1.242857e-07 1.7625463e-07 3.9990833e-09 1.4317001e-08
6.368601e-07 -4.7250104e-08 -3.0973943e-08 8.1654156e-07 2.5629163e-07 -6.6582814e-08 -1.0922206e-07 1.7455321e-07
6.277684e-07 5.075198e-05 -2.2764027e-07 -8.464441e-06 -1.5116682e-07 -9.276041e-05 -1.8750778e-07 -1.9223846e-05
1.311384e-07 -1.1711257e-06 -0.00019081632 7.1720395e-05 1.5624221e-06 1.2989416e-07 -0.0002680539 -0.00018013362
-0.0005322463 -0.0004952195 -4.3466425e-06 0.0003230992 -0.00023554685 -0.0001317523 -0.00020535901 -2.790774e-05
0.00045372237 -0.00036806648 -0.00040484025 1.2452736e-07 5.2675628e-06 2.3331367e-08 -1.0535372e-06 -3.601674e-09
-9.506239e-06 -7.24715e-09 -2.0941302e-06 1.9116932e-08 -1.9552373e-07 -1.9367584e-05 7.4227987e-06 2.627964e-07

exp_avg_sq f4 [64, 27]
00000000: 342a 7d26 024e e22a 25af 9225 ff5a a028
00000010: b9db 8824 ad42 b82b da8b aa24 8eb6 8229
00000020: 2df7 6124 dfbe c126 8994 c12c e8a1 602b
00000030: cb99 8126 78c8 0524 d0bb 5e2e 5687 a02e
00000040: 201e 2430 993b 6a2e e493 6d2e 95cd 3a30
00000050: 5724 c22e f144 832e 3e28 6430 2ba0 972f
00000060: e8e3 af2f 49b9 052f 1d83 cd2d b16e e42b
00000070: 71c9 4830 f1b1 fc2a ecf2 102e e396 cf29
00000080: 59cc 2231 e529 122a 1055 ea2e ccf3 d929
00000090: f1d8 2a2c 7ae6 2a32 889c c630 c23c e82b
000000a0: 0051 7229 ecfe f833 c46a 0834 6e7f 8a35
000000b0: 3bfb 2334 dfc3 8d33 d586 b235 47bf 6e34
000000c0: d8ea 7733 7aa6 c835 49bd 2935 5e30 5935
000000d0: c085 4834 ba57 5033 a039 062e ca38 5732
000000e0: db10 1e2d c268 1d30 eb01 f32b 1b29 2e33
000000f0: d336 3e2c d608 fd30 2ee8 f52b 672c 3d2e
00000100: 8a45 3634 4ea9 d432 8664 032e cea5 832b
00000110: 9667 a635 ff99 a734 59e5 d135 4faa b735
00000120: beda c434 5ae4 f035 a4bf c535 e6f3 0035
00000130: 2eed 0336 e896 2336 2702 6f35 85d1 8a34
00000140: 012f 7035 9e0e a92e 7095 1633 2932 c42d
00000150: 3a38 d630 299f b12c 35a0 f433 a456 e32c
00000160: bb48 af31 f3f1 a42c c1b7 f92e b13b 0035
00000170: 9b22 9533 3a78 a92e 87e8 222c 7cdf 1137
00000180: 21fb 6035 d666 d837 c6c3 1637 8881 2b36
00000190: d3fc 0738 ab2f 2537 bdb5 8236 38f6 1038
000001a0: e6b6 bb37 d09b 8637 863a 7436 4f4d 3336
000001b0: 085a ea2d 8ab0 5232 26f2 042d 18b7 1730
000001c0: ffb7 f82b f6de 2a33 8059 1a2c 9ee4 f530
000001d0: 4165 d32b 64ce 2c2e 9029 3334 4a63 d032
000001e0: 2258 e82d 29f8 5c2b e219 5d36 147a 1b35
000001f0: b472 7037 0295 5136 0547 ce35 1de7 9037
00000200: 55bc 6636 5b50 0836 b89d 9937 95d6 2b37
00000210: 8bf2 2537 a13e 0e36 8d59 8c35 7678 0e26
00000220: 8fe0 0b2a 8777 d024 abcc 2b28 a1d9 9923
00000230: a097 d52a 92c9 c823 588d ca28 8272 7823
00000240: 64ff 9f26 e79e e22b fbc9 832a fe0a f625
00000250: 9b43 f622 7ba7 962e db4a 4a2e 7c29 f12f
00000260: cfeb ae2e a0f0 082e 290f 0530 c15a e42e
00000270: 56da 0e2e 5141 0a30 4b7e 772f 7398 722f
00000280: c60e 5a2e d8ce ac2d 7c02 a624 d958 1529
00000290: 09b9 bd23 2cf8 cf26 45f3 9c22 8185 f229
000002a0: 4b2c e822 430f ab27 57d3 9822 7dbc f224
000002b0: 152e fe2a 75f0 9329 6c47 ae24 766f 4e22
000002c0: 4b76 c72c 8ae7 e82c b9ad 652e 5db7 e42c
000002d0: afd6 7f2c 7c1b 752e c257 3a2d 6e61 992c
000002e0: 8779 a02e 88a3 df2d 1557 c72d 54d7 1c2d
000002f0: 8d4d 2c2c ef4a ce25 c307 3b2a e8a9 c324
00000300: ef7f 0b28 d218 7e23 73a7 152b cd4f ee23
00000310: f37a e028 6b33 8723 35e7 2426 ba3f 1c2c
00000320: d095 b72a 6dd5 c125 a7c8 5923 e562 9a2d
00000330: 66fa 912c 9ba9 a12e ca39 ad2d 5d51 8e2c
00000340: 9d33 c22e 1c9f ce2d 59bc ce2c bf53 be2e
00000350: 047b 672e 75c0 0b2f 7503 1b2d 92ee 832d
00000360: cc90 6630 a4aa ce34 1afb 842f 6038 9432
00000370: b47b 4e2e cbec a735 109f 982e 0a44 7133
00000380: 5325 4b2e 32f1 a930 8d9c af36 cfca 4c35
00000390: b983 6a30 ec39 072e 0dbd 6f37 97dd a537
000003a0: 0ea1 1037 081f 4f37 7ab9 9e37 6625 d736
000003b0: 19f3 2037 d8a4 9737 794a ab36 414e ee36
000003c0: bb14 6337 5c8a c337 a32a 9e37 c039 9c2c
000003d0: 07c9 f530 d1ea be2b 0d6c b42e 7db8 912a
000003e0: 8a6b c731 5516 fe2a 95c2 912f 724f 952a
000003f0: 1280 dc2c 73fa d032 954e 7331 95dc 9f2c
8.7834204e-16 4.0199793e-13 2.5445645e-16 1.7803032e-14 5.935282e-17 1.3092493e-12 7.3962665e-17 5.804828e-14
4.8998464e-17 1.3443801e-15 5.5018806e-12 7.9805476e-13 8.992859e-16 2.900958e-17 5.0643767e-11 7.299998e-11
5.970566e-10 5.3258373e-11 5.4018914e-11 6.7958555e-10 8.828554e-11 5.969437e-11 8.3003104e-10 2.7580546e-10
3.1994252e-10 1.2162106e-10 2.3364028e-11 1.6231097e-12 7.304584e-10 4.4887664e-13 3.2957567e-11 9.218821e-14
2.369026e-09 1.298194e-13 1.0656198e-10 9.679028e-14 2.427888e-12 9.947707e-09 1.4450885e-09 1.6501455e-12
5.380505e-14 1.159477e-07 1.2704828e-07 1.0318888e-06 1.5271955e-07 6.601453e-08 1.3301275e-06 2.2235064e-07
5.7722758e-08 1.4949612e-06 6.323285e-07 8.0909183e-07 1.867511e-07 4.850856e-08 3.0519254e-11 1.2527559e-08
8.985003e-12 5.7265137e-10 1.7266721e-12 4.0549917e-08 2.7031058e-12 1.8410684e-09 1.747274e-12 4.3013062e-11
1.6975369e-07 2.4757039e-08 2.9875234e-11 9.35413e-13 1.2398111e-06 3.121822e-07 1.5638462e-06 1.3684129e-06
3.6667e-07 1.7947852e-06 1.4733419e-06 4.8038635e-07 1.9658578e-06 2.4376732e-06 8.903757e-07 2.585695e-07
8.9475367e-07 7.687827e-11 3.506051e-08 2.2304896e-11 1.558653e-09 5.048313e-12 1.1391277e-07 6.461347e-12
5.101439e-09 4.688022e-12 1.135585e-10 4.777058e-07 6.944648e-08 7.706587e-11 2.3150663e-12 8.6947075e-06
8.3811943e-07 2.5797093e-05 8.986279e-06 2.5556383e-06 3.242197e-05 9.845865e-06 3.895459e-06 3.4561584e-05
2.2377306e-05 1.60466e-05 3.6392898e-06 2.6718078e-06 2.6642702e-11 1.2263749e-08 7.557099e-12 5.519367e-10
1.7672529e-12 3.978399e-08 2.1934399e-12 1.7891073e-09 1.5020555e-12 3.9291584e-11 1.6685794e-07 2.4259538e-08
2.6414485e-11 7.850409e-13 3.2946632e-06 5.7919647e-07 1.4331821e-05 3.123016e-06 1.5368865e-06 1.7273758e-05
3.4382294e-06 2.0312352e-06 1.8312465e-05 1.02423555e-05 9.891238e-06 2.1196104e-06 1.0456876e-06 4.94294e-16
1.242359e-13 9.040811e-17 9.536787e-15 1.6680463e-17 3.7941612e-13 2.1769412e-17 2.2487803e-14 1.3468355e-17
1.1102065e-15 1.610237e-12 2.3410427e-13 4.2681646e-16 6.6750014e-18 6.850961e-11 4.5995967e-11 4.386712e-10
7.954492e-11 3.1136538e-11 4.840666e-10 1.0384361e-10 3.2480983e-11 5.029693e-10 2.2509387e-10 2.2063933e-10
4.9580583e-11 1.9645993e-11 7.199523e-17 3.316171e-14 2.0569786e-17 1.4430778e-15 4.2541456e-18 1.0770118e-13
6.2930623e-18 4.747858e-15 4.1423447e-18 1.0527008e-16 4.515144e-13 6.569824e-14 7.5581465e-17 2.7977213e-18
5.6690533e-12 6.6195426e-12 5.222287e-11 6.500507e-12 3.6356853e-12 5.573096e-11 1.0592362e-11 4.3593384e-12
7.297545e-11 2.5424787e-11 2.2662353e-11 8.915386e-12 2.448572e-12 3.578608e-16 1.661163e-13 8.48556e-17
7.743791e-15 1.37746235e-17 5.3167816e-13 2.5837809e-17 2.4922316e-14 1.4658506e-17 5.7212274e-16 2.2204309e-12
3.2611283e-13 3.3624786e-16 1.1806083e-17 1.7551691e-11 4.1489477e-12 7.35156e-11 1.9693486e-11 4.044916e-12
8.831267e-11 2.3490147e-11 5.875783e-12 8.655076e-11 5.263258e-11 1.2710351e-10 8.8114975e-12 1.4998922e-11
8.387928e-10 3.8494647e-07 2.4189079e-10 1.7255104e-08 4.6948848e-11 1.2511385e-06 6.940415e-11 5.6174066e-08
4.6190007e-11 1.236492e-09 5.2336313e-06 7.629105e-07 8.5315893e-10 3.074689e-11 1.4289527e-05 1.9772719e-05
8.620567e-06 1.23453865e-05 1.8921437e-05 6.411853e-06 9.593344e-06 1.8077364e-05 5.104867e-06 7.1020627e-06
1.3535081e-05 2.331024e-05 1.8854922e-05 4.440198e-12 1.7883232e-09 1.3565487e-12 8.204646e-11 2.5885189e-13
5.803888e-09 4.513496e-13 2.6513605e-10 2.6522843e-13 6.2669947e-12 2.4328278e-08 3.5405823e-09 4.5435413e-12

exp_avg f4 [64]
00000000: 044b 2e2a f051 1dad e7dd 722d 3c87 da2d
00000010: d853 e8ac 4a62 09a8 54eb 0e29 e245 b7a7
00000020: 9c43 8bad 2cfc dd2b 97e1 112d 6ed7 b3ab
00000030: daee 14ac 32a6 b7ab fc35 9bac e4a2 092e
00000040: 10f3 c42c 8d48 962c 8d39 21aa a715 432a
00000050: 59e5 9dad 2f6e fb2c 22d9 432d 25ea 8cad
00000060: 6820 f52e 0921 002d fe99 9e2d 3d98 132e
00000070: 8c73 472d 0d92 2d2b c8dd 202b af53 45ac
00000080: 4c8d 57aa 13e0 8c2d e73f a3ad 74f4 beae
00000090: 91d2 9caa d21d b3aa 4437 c9ac ca67 80ad
000000a0: 0b49 d52a b910 172d a566 f72a dbad b12b
000000b0: ea94 1eac b8fd fd2a 6413 042a 4192 892e
000000c0: 7c72 3a2b 6274 192c 40b8 d8ab eeb2 f0ae
000000d0: 0701 612d d61f 932d 6c2d 36ae 1a40 8fac
000000e0: 23ec 2e2d df39 2aab 40d1 47ac f0a7 baa8
000000f0: 579e ee2d 4fd0 662c 65aa 0dae 9a90 042d
1.5480331e-13 -8.9426105e-12 1.380538e-11 2.4843787e-11 -6.603145e-12 -7.626341e-15 3.173445e-14 -5.086847e-15
-1.5832495e-11 1.5772986e-12 8.292387e-12 -1.2778509e-12 -2.1164654e-12 -1.304906e-12 -4.4113584e-12 3.129487e-11
5.5976404e-12 4.271311e-12 -1.431964e-13 1.7326991e-13 -1.7950684e-11 7.146082e-12 1.113268e-11 -1.6020138e-11
1.11470666e-10 7.283293e-12 1.8030907e-11 3.3559145e-11 1.1337497e-11 6.1664633e-13 5.71512e-13 -2.8041838e-12
-1.9144858e-13 1.6015666e-11 -1.8559333e-11 -8.683623e-11 -2.7857276e-13 -3.181748e-13 -5.7188993e-12 -1.4598007e-11
3.7887084e-13 8.587069e-12 4.3947238e-13 1.2624861e-12 -2.2535814e-12 4.511788e-13 1.1730683e-13 6.2560186e-11
6.6239353e-13 2.1807213e-12 -1.5398863e-12 -1.0945721e-10 1.2789997e-11 1.6726103e-11 -4.142235e-11 -4.071421e-12
9.943188e-12 -6.0476445e-13 -2.8395758e-12 -2.072298e-14 2.7127784e-11 3.28006e-12 -3.221103e-11 7.535439e-12

exp_avg_sq f4 [64]
00000000: 19d7 4217 86cc 8e1c 43c1 071d 583f e81e
00000010: bdb7 7f1e 430e f416 41d8 9115 7e9f b415
00000020: 4f4f 931e 7f65 a91c b98d 041d daa3 c61c
00000030: 2eb9 561c e80b 221c 53c0 681b 5381 051f
00000040: 93de 681c 4f35 ed1c a555 9d1e 22f3 6917
00000050: bc76 801d 72f1 8d1e 986e 121c 398f 531d
00000060: efc9 5420 c6b4 e11e 7653 011f f63e a01d
00000070: af5e 0f1d d077 271a 3218 491d db4a 971b
00000080: 2417 2418 1ef4 4a1d ae95 361f bc35 bd1e
00000090: dbbc 1b1e f832 eb1b 032d d91c ddf0 e21d
000000a0: 71e8 c11a 13bb 011c 2bfa 951b e3c9 161b
000000b0: b2b8 2e1b 0e8a b41d cb8a 301d 4a67 511f
000000c0: c660 b71c 66ed 1b1b 54b1 101b dee4 b21f
000000d0: fde0 141e 8e29 d61d 5549 051f af35 981b
000000e0: 18a3 541e c9b7 1c1c 43d6 3d1d dee8 4f14
000000f0: a8a4 421f 1fb4 041b 8892 c41e 41ec a91d
6.295627e-25 9.44964e-22 1.7967015e-21 2.4590154e-20 1.3537584e-20 3.9429326e-25 5.890622e-26 7.2953055e-26
1.5597032e-20 1.1209718e-21 1.7543323e-21 1.3144896e-21 7.1046e-22 5.361669e-22 1.9252734e-22 2.827082e-20
7.705003e-22 1.5697124e-21 1.6658443e-20 7.5593237e-25 3.4004086e-21 1.5028815e-20 4.8450287e-22 2.7999662e-21
1.8023913e-19 2.3897568e-20 2.738585e-20 4.2416747e-21 1.8974843e-21 3.4631574e-23 2.6614637e-21 2.5029229e-22
2.1208186e-24 2.6860683e-21 3.866381e-20 2.0033377e-20 8.244686e-21 3.8910427e-22 1.4371491e-21 6.007075e-21
8.019846e-23 4.2924307e-22 2.481165e-22 1.2472942e-22 1.4452621e-22 4.778835e-21 2.336516e-21 4.434291e-20
1.213494e-21 1.2898007e-22 1.1968699e-22 7.576456e-20 7.881581e-21 5.6688295e-21 2.8224504e-20 2.5180983e-22
1.12569135e-20 5.1853607e-22 2.5124712e-21 1.0496754e-26 4.12173e-20 1.0976984e-22 2.0812911e-20 4.497821e-21

exp_avg f4 [64]
00000000: 7d44 d3b6 ac32 893a 48cf 49b7 a257 ebb9
00000010: ee6b dbb9 464b 2f37 aed4 8fb6 6b0b 7637
00000020: 22ca 75ba 643b 90b9 30e7 e237 a038 793a
00000030: db2c 06b9 6297 ddb8 ac95 72b8 731e 36bb
00000040: 7385 14b9 6058 153a 94b3 923a b85b 3637
00000050: 9615 3639 2054 953a f2fe 0d38 24eb 5e39
00000060: 3cf1 043b 366e 0f3a 4ba5 92ba 18cc b2b8
00000070: 9a33 a839 f728 dcb8 c4e8 ec3a 77fc 0fb9
00000080: de1d 6238 e657 be39 2811 fc39 a36e 703a
00000090: eb7c ffb9 8b07 0bb9 1cd4 b13a 5f17 8939
000000a0: 5d98 2538 32c6 86b7 f9cd a539 d5b4 06b9
000000b0: 5e6d 633a 58f1 4b39 8330 caba 6c03 08bb
000000c0: 4018 b939 0f69 4138 3222 4539 4554 6d3b
000000d0: 6ab7 d0b9 d188 563a 158e 26bb 5756 2cb8
000000e0: 41d0 10bb 18b0 8fb8 5db9 8438 2918 c6b7
000000f0: d113 93ba b978 f337 acf9 78ba e8c1 b539
-6.296263e-06 0.0010467372 -1.2028795e-05 -0.00044887984 -0.0004185135 1.0448339e-05 -4.2864913e-06 1.4665401e-05
-0.00093761284 -0.0002751007 2.7048955e-05 0.0009507034 -0.00012795946 -0.000105662984 -5.783669e-05 -0.0027789145
-0.00014164094 0.0005697068 0.0011192434 1.08694e-05 0.00017364914 0.0011392869 3.3854456e-05 0.00021259167
0.0020285388 0.000547144 -0.0011188177 -8.525717e-05 0.00032081903 -0.00010498048 0.0018074741 -0.00013731593
5.3910415e-05 0.00036305113 0.00048077968 0.00091717596 -0.0004873046 -0.00013258883 0.0013567242 0.0002614809
3.9480965e-05 -1.6066337e-05 0.00031624714 -0.00012846601 0.000867566 0.00019449496 -0.0015425835 -0.0020753993
0.00035304017 4.611263e-05 0.00018800123 0.0036213559 -0.00039809506 0.00081838394 -0.0025414277 -4.1088406e-05
-0.0022096785 -6.8515714e-05 6.328777e-05 -2.361469e-05 -0.0011221116 2.9024073e-05 -0.0009497653 0.00034667482

exp_avg_sq f4 [64]
00000000: cccb 1733 8982 0937 8948 6238 40ac da37
00000010: 32da 5537 3831 d032 cda2 f430 c6fc f933
00000020: 2a08 3637 96a0 8c36 700e e536 eb6a a236
00000030: 17b4 0b37 2adc 6136 977b c035 3cbb a739
00000040: 66ed dc36 3c19 0937 5cb3 8339 4658 3833
00000050: a24c 8e36 e18f 2437 8600 ea36 d624 7838
00000060: 5192 183a 3f65 1739 e381 0339 6ac0 f936
00000070: 80db 4137 735a ed34 bbd5 b337 495c 1436
00000080: 4a4c cf34 f3ae f637 929f b838 d468 6339
00000090: 6bd3 3e38 bf73 f235 2baf b236 3c53 3f38
000000a0: a105 8c35 6665 5d36 2e83 1536 687b 1e35
000000b0: f7fd 8936 febf b036 35f3 cb38 93cc 8838
000000c0: 6651 d336 b674 5435 dafb f035 6be4 c439
000000d0: b14c 9e38 e8a9 a037 2a10 0c3a 82b2 3f36
000000e0: 4dab 9338 9d62 9436 ca9f c136 46a5 1f32
000000f0: 5f7c d237 a935 6036 62fe cf38 f4fe 2c37
3.534278e-08 8.196229e-06 5.3950153e-05 2.6067835e-05 1.2746592e-05 2.4236769e-08 1.7799607e-09 1.1640945e-07
1.0849946e-05 4.19102e-06 6.8264126e-06 4.840423e-06 8.326976e-06 3.3655765e-06 1.4341084e-06 0.00031992223
6.5841477e-06 8.171712e-06 0.000251199 4.2921123e-08 4.240851e-06 9.808661e-06 6.9738044e-06 5.9162114e-05
0.00058201427 0.000144382 0.0001254152 7.443178e-06 1.1554803e-05 4.42105e-07 2.1437989e-05 2.2107436e-06
3.8612262e-07 2.9406952e-05 8.803526e-05 0.00021687459 4.549643e-05 1.8064092e-06 5.3252056e-06 4.5615467e-05
1.0432451e-06 3.2990588e-06 2.2279087e-06 5.9039166e-07 4.1124836e-06 5.2675596e-06 9.725095e-05 6.52309e-05
6.297766e-06 7.914599e-07 1.7954692e-06 0.00037554218 7.548312e-05 1.9152605e-05 0.0005342985 2.8565123e-06
7.0414135e-05 4.422224e-06 5.77045e-06 9.292597e-09 2.5091866e-05 3.3409835e-06 9.917912e-05 1.031136e-05

exp_avg f4 [64]
00000000: 3ec6 a6ad 8128 303a 175d b1ae d760 5fba
00000010: 8936 02ba ce9f 9aad 4add fdac d5bb 31ae
00000020: b29e fdb9 4c22 83b9 b397 02ba 6a99 b739
00000030: 8ec7 1f39 5c7f 9fb7 a9bc 5cb5 c5b2 c9b7
00000040: a296 2038 b436 0c3a 791d f439 b66a de2c
00000050: 188a c638 50ce f8b7 3921 0238 b2f4 7e37
00000060: 22db 84b1 2e30 edae 6c7d 78b9 7abb ae38
00000070: 8026 c639 aafc 3230 e2ef 7c2f 6c70 4eb9
00000080: d631 47ae 7c6a c62e 6801 01b0 947c 522f
00000090: 28cb 66b7 5557 55b8 a61f 8c39 359f 87b9
000000a0: 3f11 53ae 7fc2 99b8 6999 6039 73ad adad
000000b0: 8048 c1ae a24b 093a 6d0f d039 1f7b a2b5
000000c0: 3e16 c639 67f3 4738 26bc 6d39 4979 90af
000000d0: 18e5 c5b8 0902 7cba b490 08ba 3ead e4b8
000000e0: aa75 2b3a 178f 7838 f827 a1b9 1001 bfaa
000000f0: 854c 6d39 0274 422f 6878 5a39 5a7e 17b9
-1.8960052e-11 0.0006719903 -8.065564e-11 -0.0008521205 -0.0004967233 -1.757874e-11 -7.2152605e-12 -4.041197e-11
-0.00048374158 -0.0002501182 -0.00049817114 0.00035018782 0.00015237762 -1.9013583e-05 -8.2230923e-07 -2.4044313e-05
3.828726e-05 0.00053487276 0.00046561265 6.321467e-12 9.467098e-05 -2.9659976e-05 3.1025356e-05 1.5196552e-05
-3.866618e-09 -1.07860706e-10 -0.00023697846 8.331887e-05 0.00037794188 6.511508e-10 2.300449e-10 -0.00019687571
-4.5291625e-11 9.022913e-11 -4.6931925e-10 1.9143648e-10 -1.3756369e-05 -5.086449e-05 0.0002672646 -0.00025867825
-4.7991163e-11 -7.331836e-05 0.00021419454 -1.974485e-11 -8.7895025e-11 0.00052374054 0.00039684345 -1.2105774e-06
0.00037782075 4.7671983e-05 0.00022672172 -2.6279626e-10 -9.436364e-05 -0.00096133404 -0.0005209551 -0.00010904156
0.00065406656 5.926107e-05 -0.00030738092 -3.3929153e-13 0.00022630587 1.7685411e-10 0.00020834955 -0.00014447552

exp_avg_sq f4 [64]
00000000: bd18 0030 1a55 2b36 6215 2632 6fca c836
00000010: 31b1 3f36 dd45 6e31 a0d0 1a2c 3089 8c20
00000020: 0068 a237 c5fa be36 77bb 8b36 0e6e 3e36
00000030: 43e0 1237 5b44 9a36 78d2 f335 3628 0934
00000040: 4bac f636 9c8d 1b36 fd7c 2b38 ad5d 6131
00000050: a1c1 ab36 da84 f036 36ec 2a36 17a3 7e32
00000060: aa52 3a33 3511 0c31 73f9 9037 6b18 0037
00000070: d9e9 a737 2a3e 8634 a50b 7332 6e5c 8036
00000080: 6de2 6420 894f 482f 3f36 fb31 6290 0c33
00000090: 3484 9638 5b57 1636 4e2b 7f36 0c37 5e37
000000a0: 0d06 0435 a669 9636 f27b 0536 baea d234
000000b0: 4ec0 3b21 bdf9 9036 da9f df34 2f3e 5833
000000c0: 5ec3 4936 2535 6a35 43e8 1436 900f ab31
000000d0: d099 5037 c1cd 7637 3a7e c438 b2de 8436
000000e0: dda5 8f35 1da2 b136 b2e4 0b37 d2c0 e31e
000000f0: 2cb8 7235 989f ee20 ffbb 2436 f797 0b37
4.6601284e-10 2.5530521e-06 9.667334e-09 5.984031e-06 2.8564357e-06 3.467327e-09 2.2000526e-12 2.3807706e-19
1.9360334e-05 5.6916347e-06 4.1643466e-06 2.8376267e-06 8.754493e-06 4.5975153e-06 1.8166165e-06 1.2773748e-07
7.351429e-06 2.3179227e-06 4.088598e-05 3.2795058e-09 5.1187385e-06 7.1680233e-06 2.5469467e-06 1.4821828e-08
4.3381682e-08 2.0382462e-09 1.7282297e-05 7.63508e-06 2.0016845e-05 2.5004675e-07 1.4147109e-08 3.8254575e-06
1.9387269e-19 1.821815e-10 7.3112285e-09 3.2727606e-08 7.177182e-05 2.240259e-06 3.8023168e-06 1.3245048e-05
4.9182637e-07 4.4826475e-06 1.989069e-06 3.9286334e-07 6.361258e-19 4.320608e-06 4.1653294e-07 5.0347975e-08
3.0065053e-06 8.724913e-07 2.2188913e-06 4.9785243e-09 1.2433578e-05 1.4710648e-05 9.36952e-05 3.9598317e-06
1.0702603e-06 5.2938835e-06 8.338293e-06 2.4114308e-20 9.042003e-07 4.0424379e-19 2.4547332e-06 8.320428e-06

exp_avg f4 [128, 64]
00000000: e31d 2db4 14aa 0436 af12 df36 c6c8 a137
00000010: 0efb 3e37 200b 0430 7a00 c7b3 72a8 53b3
00000020: 30ea 70b7 ecb9 6735 4292 55b7 59ac 08b7
00000030: 8938 8536 12b8 b6b6 759d 0736 fafb b5b8
00000040: 36f6 8336 24b9 43b6 b630 a6b7 677c 00b4
00000050: 1c2b ae37 76d8 dbb7 b0bf 48b6 c9b4 5237
00000060: 8ffb d437 831b da37 b28d 5937 0334 45b7
00000070: 477e 24b7 d179 16b6 f6d6 c3b6 9df4 aa36
00000080: 72b6 38b5 edce 5d37 e6d4 61b8 1208 32b7
00000090: 8cbd 8fb7 afac 8035 ad86 27b7 4b30 5d37
000000a0: 3163 4033 0f43 0a36 9741 31b6 af9c 8db5
000000b0: 2f68 83b6 8efc 3fb5 70cf 09b8 55db 20b7
000000c0: a000 8cb6 7823 adb6 90ad 2b36 8769 b8b7
000000d0: a1aa bab8 8a1b 7638 dc3e 9037 5ec0 0b36
000000e0: 8fa8 81b8 ba8d 5a35 4a50 9a37 0f12 3234
000000f0: 505b e737 37f1 f435 00c0 9337 e104 f436
00000100: ff50 34b4 ced1 7236 a3d1 5037 1399 9637
00000110: 4776 e5b6 0944 a533 6465 31b3 e5aa 83b3
00000120: 2171 9038 f7f9 2a36 dd4a 11b7 950f 82b5
00000130: d3ef 5b35 4dba fcb6 f223 8fb5 cbfd 22b9
00000140: 2c04 8135 a521 8fb6 187c 67b8 f4d0 4db4
00000150: d841 0238 4ed7 9736 3b20 17b6 ad54 9937
00000160: 3dd1 8237 4f46 1c37 eb5a 8138 6c8f 84b7
00000170: 3e11 bcb6 a966 9ab6 3391 9f36 19e8 3037
00000180: d2e4 43b2 76ac 8536 9440 08b9 cd31 0937
00000190: 024a d136 d78f feb4 b81c 9836 5949 b036
000001a0: 6131 1634 687f 6034 d83b 9035 2e9b 8cb6
000001b0: 874e 8835 3ea1 5d36 5755 5ab8 1ff6 87b7
000001c0: d14e 08b6 e42c 44b6 9833 3736 b652 8037
000001d0: c714 f1b8 b44e 0639 22b6 2d37 b48b 85b4
000001e0: 1ae8 c9b8 8ec3 f4b6 0e75 3538 9299 beb3
000001f0: 632d 1938 2db0 2f35 16fd 1038 6cc0 a137
00000200: 2eda b1b5 aaf4 90b7 291a 8237 3db4 f0b8
00000210: 20fd e133 55cf 22b5 9af4 16b5 ba7f b833
00000220: 5d0f d7b7 c8c8 3337 2c0e 1d38 0ce3 29b8
00000230: 7784 8737 6891 e436 46c2 4437 4cc8 1f39
00000240: 4d35 8d37 1eb4 f7b6 8810 f038 9f25 d4b5
00000250: 138c 0a37 ee93 0bb9 bc69 edb6 894e 9b37
00000260: 4964 87b9 d19f c036 8a9a d0b8 bbdd 8438
00000270: 6cec 9e36 9863 bc36 0853 a4b8 1abe 07b7
00000280: 1c8b eeb5 9a33 2636 4bb0 7c38 ea17 2eb9
00000290: e239 7138 cb6f 7d37 46a9 63b8 0510 5038
000002a0: 84e8 83b5 3916 8137 a6f1 58b7 7bfd 3c37
000002b0: e6f4 7db7 e603 0eb8 1488 9238 68d6 b137
000002c0: 05c3 74b7 c686 7a36 6009 6cb7 2fac aab9
000002d0: 1a26 8339 e16c 14b9 25c5 7db8 5a9b 8f37
000002e0: 0344 2e39 f801 6937 1480 e8b7 0527 ce35
000002f0: 037f d737 e96e 5536 04fa eab5 8521 e237
00000300: 9092 53b2 08f0 08b4 cc55 01b7 6e88 a5b7
00000310: 1104 86b7 220f 84b3 20e0 aeb2 ea4d 8e32
00000320: 31fd 9ab7 e5de f6b4 b26b 9c36 387c 7134
00000330: 824b d235 54bf 88b5 456d 4535 1f55 0338
00000340: e2a2 6535 30e1 c234 60d0 4437 40a7 cab0
00000350: deee 33b7 56c5 d135 11bb fdb5 a795 4db7
00000360: 3517 f637 b4f7 d2b5 f597 08b8 d815 1cb6
00000370: 2993 2bb4 c073 1236 46bc 34b6 c035 d7b5
00000380: 8541 0f33 745d 93b5 d7e4 5938 ff77 6137
00000390: 3d5b 8136 7e80 9834 0332 c5b5 94cd bf36
000003a0: 4813 44b4 34c1 6135 5bcc 05b6 61b2 8c35
000003b0: e779 89b5 77b0 1cb7 3efc 8437 89e1 b137
000003c0: 1c84 48b6 25b1 0635 f4f7 a634 4b1b 9837
000003d0: 5539 5e37 5566 08b8 ee1b e7b6 4e2f d235
000003e0: fe4b 9937 6815 3636 be4d 99b7 fb2c 2c34
000003f0: 7444 48b5 3a46 dcb4 d577 92b7 a3e3 c6b4
-1.6122753e-07 1.9768531e-06 6.648093e-06 1.9286188e-05 1.1383336e-05 4.803713e-10 -9.266746e-08 -4.9280466e-08
-1.4359641e-05 8.632476e-07 -1.2729843e-05 -8.1463595e-06 3.9702904e-06 -5.4454513e-06 2.020822e-06 -8.677687e-05
3.932767e-06 -2.916503e-06 -1.9811425e-05 -1.1966186e-07 2.076249e-05 -2.6207632e-05 -2.99139e-06 1.2559068e-05
2.538951e-05 2.6000436e-05 1.2967199e-05 -1.1754225e-05 -9.804563e-06 -2.2422648e-06 -5.8364776e-06 5.0948715e-06
-6.8810834e-07 1.3220805e-05 -5.3842457e-05 -1.0611506e-05 -1.7135193e-05 9.587001e-07 -9.985332e-06 1.3183871e-05
4.4793698e-08 2.0602636e-06 -2.6413234e-06 -1.055092e-06 -3.916233e-06 -7.152056e-07 -3.2856537e-05 -9.58781e-06
-4.172398e-06 -5.159931e-06 2.5582012e-06 -2.198365e-05 -8.900953e-05 5.867662e-05 1.7195409e-05 2.0824586e-06
-6.182596e-05 8.141757e-07 1.8395618e-05 1.6584112e-07 2.7579867e-05 1.8249619e-06 1.7613173e-05 7.2723346e-06
-1.6793273e-07 3.6182932e-06 1.2446576e-05 1.7952674e-05 -6.838501e-06 7.695787e-08 -4.1303238e-08 -6.1312484e-08
6.887527e-05 2.5477473e-06 -8.660104e-06 -9.69029e-07 8.193285e-07 -7.5318735e-06 -1.0664792e-06 -0.00015544069
9.612463e-07 -4.265649e-06 -5.5190263e-05 -1.916813e-07 3.1055737e-05 4.5252154e-06 -2.2519514e-06 1.8278452e-05
1.5594642e-05 9.314695e-06 6.168134e-05 -1.5802412e-05 -5.604844e-06 -4.601509e-06 4.7554727e-06 1.0544457e-05
-1.1402522e-08 3.983786e-06 -0.00012994028 8.1774315e-06 6.237301e-06 -4.7415844e-07 4.5332963e-06 5.2537475e-06
1.3987803e-07 2.0907976e-07 1.0746253e-06 -4.1903904e-06 1.0155644e-06 3.3025422e-06 -5.205473e-05 -1.6207863e-05
-2.0311456e-06 -2.9232406e-06 2.7299156e-06 1.5297304e-05 -0.000114956456 0.00012808555 1.035401e-05 -2.4874828e-07
-9.627659e-05 -7.294532e-06 4.326278e-05 -8.875499e-08 3.6520312e-05 6.544895e-07 3.456798e-05 1.9282299e-05
-1.3251026e-06 -1.7280068e-05 1.550939e-05 -0.00011477664 1.0523422e-07 -6.065141e-07 -5.6235297e-07 8.591401e-08
-2.5637151e-05 1.0715979e-05 3.7444916e-05 -4.0504194e-05 1.6154938e-05 6.811857e-06 1.1727743e-05 0.00015238038
1.683333e-05 -7.382142e-06 0.00011447171 -1.580618e-06 8.258055e-06 -0.00013311181 -7.0754595e-06 1.851401e-05
-0.00025823925 5.740651e-06 -9.946998e-05 6.335551e-05 4.73629e-06 5.614431e-06 -7.835595e-05 -8.0908885e-06
-1.7772868e-06 2.4765964e-06 6.0245668e-05 -0.00016602842 5.7512785e-05 1.5106004e-05 -5.4278666e-05 4.9605984e-05
-9.827932e-07 1.5388347e-05 -1.2930866e-05 1.1264691e-05 -1.5136995e-05 -3.385907e-05 6.987169e-05 2.1199885e-05
-1.458894e-05 3.7331351e-06 -1.4068879e-05 -0.00032553214 0.00025014655 -0.0001415494 -6.0503506e-05 1.711927e-05
0.0001661927 1.3888341e-05 -2.7716196e-05 1.5359552e-06 2.5689142e-05 3.1804032e-06 -1.7507123e-06 2.6956908e-05
-1.2315141e-08 -1.275331e-07 -7.708975e-06 -1.9733063e-05 -1.5975938e-05 -6.1494816e-08 -2.0358186e-08 1.6566407e-08
-1.8476132e-05 -4.5983248e-07 4.6616997e-06 2.2490065e-07 1.5668195e-06 -1.0188473e-06 7.3547227e-07 3.131211e-05
8.5546174e-07 3.629916e-07 1.17310265e-05 -1.474497e-09 -1.0724847e-05 1.5629146e-06 -1.8904412e-06 -1.2253796e-05
2.9336292e-05 -1.571831e-06 -3.2566448e-05 -2.3258526e-06 -1.5979153e-07 2.182307e-06 -2.693168e-06 -1.6034392e-06
3.335437e-08 -1.0979552e-06 5.1949955e-05 1.3438984e-05 3.855121e-06 2.8405697e-07 -1.4692199e-06 5.716176e-06
-1.8260937e-07 8.410018e-07 -1.9937495e-06 1.0482728e-06 -1.0242774e-06 -9.339411e-06 1.5853086e-05 2.1205067e-05
-2.987922e-06 5.017667e-07 3.110032e-07 1.8132521e-05 1.324558e-05 -3.252023e-05 -6.887588e-06 1.5659987e-06
1.8274408e-05 2.7132573e-06 -1.8275223e-05 1.6035112e-07 -7.460542e-07 -4.102929e-07 -1.7460357e-05 -3.7046001e-07

exp_avg_sq f4 [128, 64]
00000000: 4e4b 962e 67df d032 3e72 f332 1f9c 0a34
00000010: 2e5e ae33 a23e 902d a6d1 9b2d 8941 b52d
00000020: 328f 7d34 30ae fc31 1f29 3a32 2467 8133
00000030: 3794 3532 9944 8e31 e64d 3c31 0da6 a235
00000040: ebd1 1632 3282 5f33 c382 b133 d4cc b82e
00000050: 352d 2e33 3b18 3634 410d 9032 4e0a 3c33
00000060: 93e8 5134 b8ac c533 e3ed 0334 2f1f 0732
00000070: 1c8b 0b32 09ae e030 d284 0233 72fc 1432
00000080: 5c8f 5f2f b3fd 9032 1935 4735 cc56 f132
00000090: 1700 e633 88c0 2d31 3562 3533 4ec4 d733
000000a0: c021 bd30 d991 a831 bcf5 7232 afe0 c830
000000b0: 0c43 c831 1519 a933 c913 2d34 a85b 8134
000000c0: e67c 6133 3227 cf30 9f5f 3731 bfba 0634
000000d0: 67b6 2e35 0980 b034 9735 f432 885a cf31
000000e0: b883 c334 9a96 9c31 97cc 7533 99f1 a22d
000000f0: 0cde 0134 b8c3 ce30 3cc7 1634 ca41 7a33
00000100: d74d df2c 92ff 5831 2fd2 d431 65c7 7e31
00000110: d259 8131 b86f 232c 29c7 da2b e95f 342c
00000120: 983e 9633 0209 1230 e3c0 1831 9080 e031
00000130: 44b0 1331 c72a e630 bc47 6b2f 6990 8c34
00000140: 26fd f830 d540 de31 2352 7e32 4b67 1b2d
00000150: 0b0f 2232 1520 9432 4b98 d030 e0ca 1c32
00000160: 959c 0834 9b35 4e33 859e 2333 071d 5a32
00000170: 3da8 5231 5509 912f 4076 1d31 ff1a ca30
00000180: 5296 b22d 9602 f031 6f77 1f34 b541 9932
00000190: a612 5132 570f 2a2f 2ef5 9231 c853 0f32
000001a0: 267d 462f ff89 e22f d698 be30 34fe 592f
000001b0: 4799 2b30 264f e331 1758 fb32 151d 0933
000001c0: 1197 b431 1866 1630 078c 1f30 e393 2933
000001d0: 07ee ec33 0300 a533 fa33 3832 fe97 da2f
000001e0: 3d30 8c33 3d9f 4f30 7eec 8432 fb52 842b
000001f0: f507 e032 f0da 0030 ed98 0433 2da7 1332
00000200: 71d7 a82e 948f 8532 2b79 dc31 6de8 1734
00000210: 4da6 a033 208a a62d 5bab 942d 2636 842c
00000220: 876b b634 3e18 1132 f375 a432 e711 5933
00000230: 3aeb b732 375d 0f31 ec22 3131 998b c335
00000240: a001 a232 e23a 3d33 f8dc c033 5367 d22e
00000250: 1d20 6e33 88d3 4d34 f668 7b32 48ff 7032
00000260: 22c7 8d35 df8e 9033 cd21 3334 3b63 c533
00000270: d864 4f31 cb95 2d30 6d8c 8033 5c38 2332
00000280: f462 5c2f 3497 f631 9159 6335 438a 8834
00000290: 9182 0134 3800 8231 775c 2633 738d ff33
000002a0: 25e1 a230 01c9 d831 ed69 4132 069d aa30
000002b0: 4272 cb31 0cac 8833 08ff 4134 4ad6 4434
000002c0: 3dc6 3e33 0ed2 b42f b0d5 d830 5117 4735
000002d0: 4d9c 3c35 9fc7 e434 3e65 4f33 e943 fc31
000002e0: d00d cf34 a0a3 6931 5954 b533 ff70 9e2d
000002f0: 1ca8 5e34 7c0c 832f a6b3 4e33 5d76 be33
00000300: 2970 092b b378 3130 4a6a e030 ee36 5831
00000310: 12e2 d130 cd52 c02a cf2f 022a 249f 1e2b
00000320: f12e 5532 c879 482e 815b fd2f 4320 6930
00000330: 5435 a72f a719 c12f 72ae af2d de01 2b33
00000340: e173 7e2f bef2 8330 7237 1231 a591 812b
00000350: afa5 e330 5312 d630 dc6a 532f f90f 2631
00000360: ad8b f332 15c6 5132 bce9 cd31 e21b 3731
00000370: 747f 3a30 0887 832e e959 fe2f af37 852f
00000380: 927c 0c2c a2f0 0431 0989 b732 8c9f 8031
00000390: 2e7f 9430 9fd3 c32d afe0 1330 7f8d 3830
000003a0: 79bf 412e fcca 062e f1ae 582f 7477 102e
000003b0: 392f d72e 7923 9f30 0b81 9331 7aa4 e531
000003c0: 5bc9 4430 fac7 182f 716c db2e 84e6 0232
000003d0: c690 8332 8aa5 6c32 f5d5 1a31 c336 412e
000003e0: 6949 3332 0fa4 dc2e 51c7 4631 cdeb 082a
000003f0: 96a8 6f31 9b36 0d2f b565 0a32 b4da 6c30
6.834587e-11 2.4315979e-08 2.8340875e-08 1.2909048e-07 8.1196376e-08 1.639872e-11 1.7714562e-11 2.0606421e-11
2.3614555e-07 7.353968e-09 1.0835975e-08 6.025792e-08 1.0569287e-08 4.1405426e-09 2.740188e-09 1.2118268e-06
8.778879e-09 5.2039645e-08 8.26599e-08 8.403736e-11 4.0553648e-08 1.6958886e-07 1.6769834e-08 4.3781533e-08
1.9549252e-07 9.204945e-08 1.2286868e-07 7.8651246e-09 8.122495e-09 1.6347609e-09 3.0388783e-08 8.672133e-09
2.0332663e-10 1.6879175e-08 7.4210544e-07 2.8095563e-08 1.0710226e-07 2.5284255e-09 4.2231665e-08 1.0047425e-07
1.3761152e-09 4.9060245e-09 1.41421275e-08 1.4615774e-09 5.8283884e-09 7.874238e-08 1.6119078e-07 2.409481e-07
5.250049e-08 1.5072372e-09 2.668436e-09 1.254766e-07 6.508548e-07 3.2875712e-07 2.8429708e-08 6.034785e-09
3.6417418e-07 4.557319e-09 5.722958e-08 1.8524559e-11 1.2094841e-07 1.5044099e-09 1.404232e-07 5.8267496e-08
6.346683e-12 3.1577412e-09 6.193907e-09 3.7075207e-09 3.7646055e-09 2.322571e-12 1.554511e-12 2.563278e-12
6.996305e-08 5.312729e-10 2.2228555e-09 6.533874e-09 2.149151e-09 1.6746861e-09 2.139861e-10 2.6182104e-07
1.8116324e-09 6.468421e-09 1.4803422e-08 8.833666e-12 9.433061e-09 1.7244057e-08 1.5177276e-09 9.1265235e-09
1.2722951e-07 4.8011866e-08 3.8095568e-08 1.269587e-08 3.0654654e-09 2.6381977e-10 2.2913724e-09 1.4705107e-09
2.0303013e-11 6.9852133e-09 1.4851479e-07 1.7841424e-08 1.2169641e-08 1.546686e-10 4.277033e-09 8.342745e-09
1.8052457e-10 4.1207213e-10 1.3867758e-09 1.9826346e-10 6.242726e-10 6.6155676e-09 2.9260304e-08 3.1924248e-08
5.2558637e-09 5.4714766e-10 5.8042854e-10 3.948288e-08 1.1032903e-07 7.6834134e-08 1.0722028e-08 3.9761966e-10
6.5280325e-08 7.553245e-10 1.5474367e-08 9.402196e-13 2.608065e-08 4.687726e-10 3.087273e-08 8.5945375e-09
7.6780256e-11 1.554853e-08 6.416618e-09 1.4147527e-07 7.4808305e-08 1.8933355e-11 1.6901749e-11 3.7576773e-12
3.3978378e-07 8.445623e-09 1.914575e-08 5.054053e-08 2.1410973e-08 2.0862225e-09 2.577674e-09 1.456926e-06
1.8860021e-08 4.4058545e-08 8.980891e-08 9.5680484e-11 5.54429e-08 1.9169067e-07 1.4633988e-08 1.4027883e-08
1.0563274e-06 6.7315106e-08 1.6682971e-07 9.191577e-08 3.0179788e-09 6.31499e-10 5.986008e-08 9.500663e-09
2.0044039e-10 7.176732e-09 8.4694426e-07 2.5432573e-07 1.2061561e-07 3.783523e-09 3.8733983e-08 1.1900092e-07
1.1851041e-09 6.309279e-09 1.1258163e-08 1.2413757e-09 5.921067e-09 6.364289e-08 1.8067306e-07 1.833188e-07
4.441812e-08 3.2891062e-10 1.5776802e-09 7.4167207e-07 7.0262905e-07 4.2613553e-07 4.8288022e-08 7.3418858e-09
3.8566805e-07 3.3998973e-09 8.443812e-08 1.80127e-11 2.0736519e-07 2.3837632e-10 4.8126502e-08 8.8690946e-08
4.882783e-13 6.456375e-10 1.6328354e-09 3.146336e-09 1.5271004e-09 3.4163506e-13 1.1562906e-13 5.635373e-13
1.2408905e-08 4.55829e-11 4.608545e-10 8.4810753e-10 3.0415015e-10 3.5124723e-10 1.9972666e-11 3.981574e-08
2.3142334e-10 9.600496e-10 2.1277313e-09 9.206426e-13 1.6563514e-09 1.5575757e-09 1.9228302e-10 2.4165259e-09
2.835244e-08 1.221044e-08 5.9928578e-09 2.6645854e-09 6.784753e-10 5.981177e-11 4.6266216e-10 2.4232125e-10
1.9964347e-12 1.9345312e-09 2.136632e-08 3.7434287e-09 1.0804564e-09 2.2262912e-11 5.3797583e-10 6.713989e-10
4.405318e-11 3.064836e-11 1.9707237e-10 3.2847905e-11 9.7854565e-11 1.1578855e-09 4.2929336e-09 6.683476e-09
7.159053e-10 1.3895365e-10 9.97823e-11 7.619409e-09 1.5316242e-08 1.3774647e-08 2.253157e-09 4.3931758e-11
1.0435863e-08 1.00335844e-10 2.892609e-09 1.2161036e-13 3.4874907e-09 1.2843275e-10 8.055783e-09 8.6167096e-10

exp_avg f4 [128]
00000000: 3454 8aac 298d 312b 20b7 2daa f417 09ac
00000010: 4b2e 4b2a 345f a225 039c cdab b0a4 a3ab
00000020: 7206 f327 b55c c02b 2083 80ac 3cc9 bfac
00000030: e56a 92ab 1322 36ad 9a60 7126 de06 cb2c
00000040: e797 3b2d 080a b62c a4d9 9aaa 80c4 d72b
00000050: 0a58 2bab fe1f 182b 549b 5428 985e dcaa
00000060: 4426 572b e024 82ab 9963 a3aa b699 b2ab
00000070: e03e 5fa6 a24f 69ab 6394 aa2b ac53 e42a
00000080: b97b b32c 624b 50aa ba3c cd2b d6a4 872a
00000090: cab5 0bab 3e19 a9a9 707b d7ab 707b 43a9
000000a0: 98a2 c3ab 2d15 c2aa 1490 56ac ee4d 5fab
000000b0: 73b0 0c26 797a b42c ddf9 9daa 174e c22c
000000c0: a8f3 c5ac 6b56 422c 5c09 d8ac 9b79 14a7
000000d0: f119 c2aa 60c3 ffa9 7a49 9e26 dcd6 1a2a
000000e0: 3e13 dba9 5930 23ad 5641 fe2a 0834 34ac
000000f0: e6c4 562c ebd7 8d2c 67d1 7aac e2eb 8d2d
00000100: 8601 dcac c955 23ac 7026 59ac 5856 f9aa
00000110: cf26 07ac 432b 322c 71d4 00ac 394f 882b
00000120: 6205 92aa 6864 462c 49ce 95ac 80bc f6aa
00000130: 4362 36ac 3c35 9baa faf6 2c2d 76b5 c12b
00000140: c513 0fac d5d1 042c 08f3 412b 542a 69aa
00000150: 0f0e 7aac 12c8 282d 4eba 002b 9091 3d2d
00000160: ca05 f6a8 0e6a 182d fd9c 322b 6c18 81ab
00000170: 23fe 9e2a 71ed c6ab 2860 18aa 9861 b32b
00000180: 5a06 ab2a dcab 612b 3721 462b 18de 042e
00000190: b812 c5ac 81c2 1aab 8e2b d22b fa51 8dab
000001a0: b7f6 172c b919 91ab b7c1 9bab 2b08 0fab
000001b0: 5c9f eb28 5e55 862c 96f9 20ac c9fa 4e2c
000001c0: 747e f728 11c8 c62a 191b 9eab 36ae 49ab
000001d0: 9b73 4e2d 3da4 d82d 86a5 272c 2869 862c
000001e0: f05f a5ab 39a1 dba7 6486 b52b 5024 c12a
000001f0: 24a6 48aa c044 02a7 d948 d22a 7e80 ffac
-3.9315443e-12 6.307893e-13 -1.5429021e-13 -1.9482168e-12 1.8046083e-13 2.8167032e-16 -1.4609428e-12 -1.1627557e-12
6.7453037e-15 1.3668152e-12 -3.6525366e-12 -5.450888e-12 -1.0403593e-12 -1.0353068e-11 8.374459e-16 5.7703694e-12
1.0663448e-11 5.173865e-12 -2.7506914e-13 1.5331209e-12 -6.087358e-13 5.4045646e-13 1.18020455e-14 -3.9145488e-13
7.643645e-13 -9.24729e-13 -2.9023726e-13 -1.2690324e-12 -7.745388e-16 -8.288874e-13 1.2120412e-12 4.0558995e-13
5.101222e-12 -1.8500265e-13 1.4582981e-12 2.4095195e-13 -4.9635003e-13 -7.5094865e-14 -1.531093e-12 -4.3405763e-14
-1.3900712e-12 -3.4476016e-13 -3.0491209e-12 -7.9333664e-13 4.881139e-16 5.129505e-12 -2.806218e-13 5.5224813e-12
-5.626128e-12 2.761703e-12 -6.1401283e-12 -2.0605048e-15 -3.4479323e-13 -1.1358167e-13 1.0983368e-15 1.3752492e-13
-9.728892e-14 -9.276213e-12 4.51648e-13 -2.5608422e-12 3.052053e-12 4.0314327e-12 -3.5643378e-12 1.6134597e-11
-6.252945e-12 -2.3211314e-12 -3.0858892e-12 -4.4291198e-13 -1.9206197e-12 2.5319336e-12 -1.8307823e-12 9.68537e-13
-2.5938545e-13 2.819323e-12 -4.257737e-12 -4.3829176e-13 -2.5918302e-12 -2.757047e-13 9.831908e-12 1.376384e-12
-2.0332497e-12 1.8874808e-12 6.890465e-13 -2.0709243e-13 -3.553494e-12 9.594119e-12 4.5733285e-13 1.07757275e-11
-2.7313997e-14 8.6637485e-12 6.345617e-13 -9.17278e-13 2.824278e-13 -1.4134649e-12 -1.3533673e-13 1.2745803e-12
3.038011e-13 8.017456e-13 7.0389826e-13 3.0210584e-11 -5.601155e-12 -5.498172e-13 1.4933486e-12 -1.0041406e-12
2.1595345e-12 -1.0310009e-12 -1.1067179e-12 -5.081514e-13 2.6159352e-14 3.8179867e-12 -2.2875916e-12 2.9413574e-12
2.7477349e-14 3.531069e-13 -1.1234096e-12 -7.165131e-13 1.1735414e-11 2.4629293e-11 2.3824011e-12 3.8201838e-12
-1.1750583e-12 -6.095951e-15 1.2898124e-12 3.4308884e-13 -1.782121e-13 -1.8078394e-15 3.7354042e-13 -7.2618014e-12

exp_avg_sq f4 [128]
00000000: 0e75 3e1c 3c49 c11a 9b27 031c 659a 021a
00000010: 9752 5618 4b52 a611 1864 271a f37e ca1a
00000020: c2ce 5717 aa88 0c1b bcc0 9f1b 108f 9a1a
00000030: 958d 221a 542d 271d ca8e 4513 8a59 991d
00000040: 0787 9b1d a859 9d1c f356 3d1b e966 5d1b
00000050: fbe8 251a 78d2 9b1a 8d44 c415 b69e 3119
00000060: 1511 3919 0735 8b1a 9fc5 201b f9dd 411a
00000070: e687 4013 354f 401a 203b da1a c49a f31a
00000080: 3a49 401f 63f1 0a1b c8ba 381b 59ea 4618
00000090: 1313 671d b605 131b 2e4c 8c1c b246 2416
000000a0: ec74 231c 2fa5 091a 8413 001d d495 141b
000000b0: 6bbc e011 6be8 771c be1e 371c 02cb 121d
000000c0: 0695 de1b 39ed 3c1c e91b 671d a6ec 6616
000000d0: 248c 3b19 82ee b01a 2ee5 b215 3914 a118
000000e0: 4ba3 2816 7de2 3f1c b091 031c 4a1f 5b1c
000000f0: 2c1d 1b1c 2ac1 c31b 5dc0 6b1c ad0b 951c
00000100: 497c 3c1c 746f 7b1c 2bd2 a31d 1f2f 661c
00000110: 106c 171b bd89 661a baee 2d1a 7b89 b71b
00000120: 9414 cd17 8671 5a1b c19a fd1c ad74 081a
00000130: 24da 311b adaa 9719 de68 c61c bd65 191b
00000140: bb77 dc19 bb6b 291a 1503 8f19 47d0 4d19
00000150: 5a3c 111c 1ca1 d91d 89a6 b619 fcda fb1c
00000160: f8e8 b916 b0d9 5f1d a362 491a ff97 3718
00000170: 70af bb18 281c a71a 6000 8c18 b098 111a
00000180: 10fa c91a 7fd5 0d19 7505 031c 557a 481d
00000190: 8577 d01c ff20 6b19 ac08 191c cdcd a21c
000001a0: 1c75 3a1a 45a7 0b19 c682 9919 0c1f 6b19
000001b0: d539 2117 67f0 511b c786 891c ffb6 bb1b
000001c0: 7d95 1017 20b5 0a19 a8a0 d11a 35a4 501a
000001d0: 84e2 3e1d 43fc 201d ea9d 921a 74bf 2b1d
000001e0: 08cb 951a d93e 4213 b6fb 501b c70f 2519
000001f0: 4e4d 931b 6ebd 6c12 f159 0b1b 0e26 031e
6.3017016e-22 7.9941246e-23 4.3395453e-22 2.700809e-23 2.7700549e-24 2.62409e-28 3.4615646e-23 8.375034e-23
6.973121e-25 1.1624687e-22 2.6428895e-22 6.392404e-23 3.3615184e-23 2.21257e-21 2.4935296e-27 4.0591344e-21
4.1167773e-21 1.0412564e-21 1.5661808e-22 1.8313944e-22 3.43094e-23 6.444653e-23 7.9271924e-26 9.182737e-24
9.5677255e-24 5.757472e-23 1.3298745e-22 4.0090773e-23 2.430081e-27 3.9768652e-23 9.025821e-23 1.0075248e-22
4.0718153e-20 1.1493089e-22 1.5280476e-22 2.5709216e-24 3.0582457e-21 1.21614e-22 9.284115e-22 1.3270122e-25
5.4083294e-22 2.846437e-23 1.6950748e-21 1.2290685e-22 3.545709e-28 8.202584e-22 6.0589354e-22 1.9427892e-21
3.6823123e-22 6.2510585e-22 3.0587025e-21 1.8653925e-25 9.6959746e-24 7.3177224e-23 7.225521e-26 4.1637944e-24
1.3622458e-25 6.348933e-22 4.353256e-22 7.250146e-22 5.13229e-22 3.2384873e-22 7.80036e-22 9.863011e-22
6.2364617e-22 8.3192983e-22 4.336305e-21 7.616152e-22 1.2525344e-22 4.767415e-23 3.5968403e-23 3.0363655e-22
1.3253009e-24 1.8069219e-22 1.6782139e-21 2.821839e-23 1.4711582e-22 1.568197e-23 1.3129648e-21 1.2688737e-22
2.2795826e-23 3.5035405e-23 1.4787098e-23 1.0640313e-23 4.805448e-22 5.7606005e-21 1.8885622e-23 1.6666393e-21
3.0035386e-25 2.9626346e-21 4.1645504e-23 2.3728934e-24 4.8515514e-24 6.911507e-23 3.618953e-24 3.0108637e-23
8.353565e-23 7.332644e-24 4.3351317e-22 2.6533024e-21 1.379518e-21 1.2155879e-23 5.063466e-22 1.0773459e-21
3.85585e-23 7.219911e-24 1.5872648e-23 1.2155485e-23 5.20949e-25 1.7365753e-22 9.100739e-22 3.1054813e-22
4.671759e-25 7.171011e-24 8.669993e-23 4.3146037e-23 2.5263396e-21 2.130624e-21 6.063931e-23 2.273064e-21
6.195297e-23 2.4517229e-27 1.7286689e-22 8.533486e-24 2.4369067e-22 7.470196e-28 1.1526872e-22 6.942952e-21

exp_avg f4 [128]
00000000: e60e d9b9 6860 cab8 8e36 87b8 239a 8638
00000010: ec4d 78b9 805f d6b4 4d5c 0d3a 88e9 12b9
00000020: 1aa7 2ab8 2d3b 3db9 f2d1 7138 12db cc38
00000030: 3f5b ba38 31cb b1b9 708c a6b6 c0ce 09b9
00000040: 90cf 85b9 0f6c 30b9 c278 9637 8f4c 05b9
00000050: 8207 c338 5caf a2b7 783f 7ab7 b24a 4038
00000060: e6fb b6b8 2a9f 1738 4887 bf37 9c69 a538
00000070: 4eb2 1137 bd57 5738 4fa2 ebb9 faa7 0439
00000080: 8927 6238 e6d6 0939 e4d3 a838 9861 33b9
00000090: e18b e9ba 41ba 88b9 0c8f 48ba bbef f837
000000a0: 7408 ce39 d832 8738 0bd4 aab9 f310 bab8
000000b0: 2455 2136 40df c337 bbe3 f3b9 54ee 0bba
000000c0: fa5d bbb9 af20 3eba d35d 10b9 7e60 dfb7
000000d0: fa82 09b7 6839 d637 9065 0739 2960 47b8
000000e0: 26d2 7eb7 7ab1 ed38 967e c538 04a7 e739
000000f0: 29cf 2038 3ad9 1f3a dc84 65b9 63ea 5eb7
00000100: 36dc d9b8 0b20 28b9 9891 b4b8 057a 71b8
00000110: bd8b 08b8 ec75 f438 45f9 ac38 4870 8937
00000120: 3cb9 a9b9 daa9 f2b9 ef29 9439 8611 85b9
00000130: a579 383a 25da 2439 aef3 8c38 b64a e138
00000140: 0b49 6938 50f0 afb6 3052 2638 087b 8a37
00000150: 1b0b 353a f2c0 b8b9 0f53 cbb7 287c 14b8
00000160: 175b 0d39 0359 c8b9 28c8 9338 79d0 d939
00000170: 1ed8 8037 3a12 c939 a0ef c6b7 30e0 c6b9
00000180: 4d2e 143a 94b4 7336 d229 b3b9 c4ac 033a
00000190: ab63 a939 cada 3d35 e949 63b9 249f ab39
000001a0: edb1 01b9 22cd d6b6 5064 3cb8 8fb2 e239
000001b0: 93f9 2b37 f055 38b8 4779 8b39 8dd9 bfb9
000001c0: b091 77b7 97c1 b9b6 a624 5e3a 1844 32b8
000001d0: fc0a 36b9 a1ba 283a e5cb 9e38 c175 e6b8
000001e0: 1fd1 a138 37c3 84b6 356b 6a39 3528 9c38
000001f0: 11cf f7b8 7e0b 5f34 9ce3 4bb8 cc7a a9b9
-0.00041400566 -9.650068e-05 -6.447463e-05 6.418328e-05 -0.00023680151 -3.9930092e-07 0.0005392477 -0.00014010642
-4.0686784e-05 -0.0001804649 5.7654404e-05 9.768283e-05 8.886167e-05 -0.0003391146 -4.9635346e-06 -0.00013142359
-0.00025522383 -0.00016824923 1.7937626e-05 -0.00012712389 9.299723e-05 -1.9393563e-05 -1.4915939e-05 4.5845933e-05
-8.725356e-05 3.614944e-05 2.283197e-05 7.8874844e-05 8.684188e-06 5.1341707e-05 -0.00044943622 0.00012651077
5.391942e-05 0.00013145394 8.050332e-05 -0.00017107127 -0.0017818176 -0.0002607871 -0.000765071 2.9675537e-05
0.0003929768 6.446772e-05 -0.0003258291 -8.872328e-05 2.4040428e-06 2.334977e-05 -0.00046518244 -0.0005337943
-0.00035737437 -0.0007252795 -0.00013767862 -2.6628604e-05 -8.196332e-06 2.553752e-05 0.00012912438 -4.7534853e-05
-1.5188509e-05 0.00011334098 9.4172705e-05 0.0004418419 3.8339906e-05 0.0006097738 -0.00021888636 -1.3286804e-05
-0.00010388384 -0.00016033665 -8.610188e-05 -5.7572517e-05 -3.2555068e-05 0.00011656791 8.248029e-05 1.6383958e-05
-0.00032372202 -0.00046284386 0.00028260003 -0.00025380793 0.00070371694 0.00015721524 6.721109e-05 0.00010742752
5.5619555e-05 -5.2433825e-06 3.9654027e-05 1.6508173e-05 0.0006906257 -0.0003523897 -2.4238163e-05 -3.540158e-05
0.00013480741 -0.00038213292 7.046788e-05 0.0004154479 1.5359426e-05 0.00038351287 -2.3715023e-05 -0.00037932536
0.00056526513 3.6314932e-06 -0.000341727 0.00050229975 0.0003230845 7.0726367e-07 -0.0002167594 0.0003273423
-0.00012368681 -6.4015776e-06 -4.4916116e-05 0.00043239116 1.0250503e-05 -4.3949054e-05 0.00026602505 -0.00036592447
-1.4756268e-05 -5.5359665e-06 0.0008474089 -4.2501924e-05 -0.00017360965 0.0006436501 7.5720054e-05 -0.00010989188
7.71603e-05 -3.9566326e-06 0.00022355917 7.446149e-05 -0.00011816447 2.0772674e-07 -4.861095e-05 -0.00032325683
